<?xml version="1.0" ?>
<net name="face-detection-0205" version="10">
	<layers>
		<layer id="0" name="ConstantOfShape_391/Broadcast/FillValue/Output_0/Data__const" type="Const" version="opset1">
			<data element_type="f16" offset="0" shape="1" size="2"/>
			<output>
				<port id="1" precision="FP16">
					<dim>1</dim>
				</port>
			</output>
		</layer>
		<layer id="1" name="image" type="Parameter" version="opset1">
			<data element_type="f16" shape="1,3,416,416"/>
			<output>
				<port id="0" precision="FP16">
					<dim>1</dim>
					<dim>3</dim>
					<dim>416</dim>
					<dim>416</dim>
				</port>
			</output>
		</layer>
		<layer id="2" name="data_mul_/copy_const" type="Const" version="opset1">
			<data element_type="f16" offset="2" shape="1,1,1,1" size="2"/>
			<output>
				<port id="1" precision="FP16">
					<dim>1</dim>
					<dim>1</dim>
					<dim>1</dim>
					<dim>1</dim>
				</port>
			</output>
		</layer>
		<layer id="3" name="Mul_" type="Multiply" version="opset1">
			<input>
				<port id="0">
					<dim>1</dim>
					<dim>3</dim>
					<dim>416</dim>
					<dim>416</dim>
				</port>
				<port id="1">
					<dim>1</dim>
					<dim>1</dim>
					<dim>1</dim>
					<dim>1</dim>
				</port>
			</input>
			<output>
				<port id="2" precision="FP16">
					<dim>1</dim>
					<dim>3</dim>
					<dim>416</dim>
					<dim>416</dim>
				</port>
			</output>
		</layer>
		<layer id="4" name="image/reverse_input_channels/Concat66648_const" type="Const" version="opset1">
			<data element_type="f16" offset="4" shape="32,3,3,3" size="1728"/>
			<output>
				<port id="1" precision="FP16">
					<dim>32</dim>
					<dim>3</dim>
					<dim>3</dim>
					<dim>3</dim>
				</port>
			</output>
		</layer>
		<layer id="5" name="Conv_6" type="Convolution" version="opset1">
			<data dilations="1,1" output_padding="0,0" pads_begin="1,1" pads_end="1,1" strides="2,2"/>
			<input>
				<port id="0">
					<dim>1</dim>
					<dim>3</dim>
					<dim>416</dim>
					<dim>416</dim>
				</port>
				<port id="1">
					<dim>32</dim>
					<dim>3</dim>
					<dim>3</dim>
					<dim>3</dim>
				</port>
			</input>
			<output>
				<port id="2" precision="FP16">
					<dim>1</dim>
					<dim>32</dim>
					<dim>208</dim>
					<dim>208</dim>
				</port>
			</output>
		</layer>
		<layer id="6" name="data_add_33997/copy_const" type="Const" version="opset1">
			<data element_type="f16" offset="1732" shape="1,32,1,1" size="64"/>
			<output>
				<port id="1" precision="FP16">
					<dim>1</dim>
					<dim>32</dim>
					<dim>1</dim>
					<dim>1</dim>
				</port>
			</output>
		</layer>
		<layer id="7" name="BatchNormalization_7/variance/Fused_Add_" type="Add" version="opset1">
			<input>
				<port id="0">
					<dim>1</dim>
					<dim>32</dim>
					<dim>208</dim>
					<dim>208</dim>
				</port>
				<port id="1">
					<dim>1</dim>
					<dim>32</dim>
					<dim>1</dim>
					<dim>1</dim>
				</port>
			</input>
			<output>
				<port id="2" precision="FP16">
					<dim>1</dim>
					<dim>32</dim>
					<dim>208</dim>
					<dim>208</dim>
				</port>
			</output>
		</layer>
		<layer id="8" name="Clip_8" type="Clamp" version="opset1">
			<data max="6.0" min="0.0"/>
			<input>
				<port id="0">
					<dim>1</dim>
					<dim>32</dim>
					<dim>208</dim>
					<dim>208</dim>
				</port>
			</input>
			<output>
				<port id="1" precision="FP16">
					<dim>1</dim>
					<dim>32</dim>
					<dim>208</dim>
					<dim>208</dim>
				</port>
			</output>
		</layer>
		<layer id="9" name="BatchNormalization_10/mean/Fused_Mul_3667236674_const" type="Const" version="opset1">
			<data element_type="f16" offset="1796" shape="32,32,1,1" size="2048"/>
			<output>
				<port id="1" precision="FP16">
					<dim>32</dim>
					<dim>32</dim>
					<dim>1</dim>
					<dim>1</dim>
				</port>
			</output>
		</layer>
		<layer id="10" name="Conv_9" type="Convolution" version="opset1">
			<data dilations="1,1" output_padding="0,0" pads_begin="0,0" pads_end="0,0" strides="1,1"/>
			<input>
				<port id="0">
					<dim>1</dim>
					<dim>32</dim>
					<dim>208</dim>
					<dim>208</dim>
				</port>
				<port id="1">
					<dim>32</dim>
					<dim>32</dim>
					<dim>1</dim>
					<dim>1</dim>
				</port>
			</input>
			<output>
				<port id="2" precision="FP16">
					<dim>1</dim>
					<dim>32</dim>
					<dim>208</dim>
					<dim>208</dim>
				</port>
			</output>
		</layer>
		<layer id="11" name="data_add_3400034005/copy_const" type="Const" version="opset1">
			<data element_type="f16" offset="3844" shape="1,32,1,1" size="64"/>
			<output>
				<port id="1" precision="FP16">
					<dim>1</dim>
					<dim>32</dim>
					<dim>1</dim>
					<dim>1</dim>
				</port>
			</output>
		</layer>
		<layer id="12" name="BatchNormalization_10/variance/Fused_Add_" type="Add" version="opset1">
			<input>
				<port id="0">
					<dim>1</dim>
					<dim>32</dim>
					<dim>208</dim>
					<dim>208</dim>
				</port>
				<port id="1">
					<dim>1</dim>
					<dim>32</dim>
					<dim>1</dim>
					<dim>1</dim>
				</port>
			</input>
			<output>
				<port id="2" precision="FP16">
					<dim>1</dim>
					<dim>32</dim>
					<dim>208</dim>
					<dim>208</dim>
				</port>
			</output>
		</layer>
		<layer id="13" name="Clip_11" type="Clamp" version="opset1">
			<data max="6.0" min="0.0"/>
			<input>
				<port id="0">
					<dim>1</dim>
					<dim>32</dim>
					<dim>208</dim>
					<dim>208</dim>
				</port>
			</input>
			<output>
				<port id="1" precision="FP16">
					<dim>1</dim>
					<dim>32</dim>
					<dim>208</dim>
					<dim>208</dim>
				</port>
			</output>
		</layer>
		<layer id="14" name="7015170154_const" type="Const" version="opset1">
			<data element_type="f16" offset="3908" shape="32,1,1,3,3" size="576"/>
			<output>
				<port id="1" precision="FP16">
					<dim>32</dim>
					<dim>1</dim>
					<dim>1</dim>
					<dim>3</dim>
					<dim>3</dim>
				</port>
			</output>
		</layer>
		<layer id="15" name="Conv_12" type="GroupConvolution" version="opset1">
			<data dilations="1,1" output_padding="0,0" pads_begin="1,1" pads_end="1,1" strides="1,1"/>
			<input>
				<port id="0">
					<dim>1</dim>
					<dim>32</dim>
					<dim>208</dim>
					<dim>208</dim>
				</port>
				<port id="1">
					<dim>32</dim>
					<dim>1</dim>
					<dim>1</dim>
					<dim>3</dim>
					<dim>3</dim>
				</port>
			</input>
			<output>
				<port id="2" precision="FP16">
					<dim>1</dim>
					<dim>32</dim>
					<dim>208</dim>
					<dim>208</dim>
				</port>
			</output>
		</layer>
		<layer id="16" name="data_add_3400834013/copy_const" type="Const" version="opset1">
			<data element_type="f16" offset="4484" shape="1,32,1,1" size="64"/>
			<output>
				<port id="1" precision="FP16">
					<dim>1</dim>
					<dim>32</dim>
					<dim>1</dim>
					<dim>1</dim>
				</port>
			</output>
		</layer>
		<layer id="17" name="BatchNormalization_13/variance/Fused_Add_" type="Add" version="opset1">
			<input>
				<port id="0">
					<dim>1</dim>
					<dim>32</dim>
					<dim>208</dim>
					<dim>208</dim>
				</port>
				<port id="1">
					<dim>1</dim>
					<dim>32</dim>
					<dim>1</dim>
					<dim>1</dim>
				</port>
			</input>
			<output>
				<port id="2" precision="FP16">
					<dim>1</dim>
					<dim>32</dim>
					<dim>208</dim>
					<dim>208</dim>
				</port>
			</output>
		</layer>
		<layer id="18" name="Clip_14" type="Clamp" version="opset1">
			<data max="6.0" min="0.0"/>
			<input>
				<port id="0">
					<dim>1</dim>
					<dim>32</dim>
					<dim>208</dim>
					<dim>208</dim>
				</port>
			</input>
			<output>
				<port id="1" precision="FP16">
					<dim>1</dim>
					<dim>32</dim>
					<dim>208</dim>
					<dim>208</dim>
				</port>
			</output>
		</layer>
		<layer id="19" name="BatchNormalization_16/mean/Fused_Mul_3668036682_const" type="Const" version="opset1">
			<data element_type="f16" offset="4548" shape="16,32,1,1" size="1024"/>
			<output>
				<port id="1" precision="FP16">
					<dim>16</dim>
					<dim>32</dim>
					<dim>1</dim>
					<dim>1</dim>
				</port>
			</output>
		</layer>
		<layer id="20" name="Conv_15" type="Convolution" version="opset1">
			<data dilations="1,1" output_padding="0,0" pads_begin="0,0" pads_end="0,0" strides="1,1"/>
			<input>
				<port id="0">
					<dim>1</dim>
					<dim>32</dim>
					<dim>208</dim>
					<dim>208</dim>
				</port>
				<port id="1">
					<dim>16</dim>
					<dim>32</dim>
					<dim>1</dim>
					<dim>1</dim>
				</port>
			</input>
			<output>
				<port id="2" precision="FP16">
					<dim>1</dim>
					<dim>16</dim>
					<dim>208</dim>
					<dim>208</dim>
				</port>
			</output>
		</layer>
		<layer id="21" name="data_add_3401634021/copy_const" type="Const" version="opset1">
			<data element_type="f16" offset="5572" shape="1,16,1,1" size="32"/>
			<output>
				<port id="1" precision="FP16">
					<dim>1</dim>
					<dim>16</dim>
					<dim>1</dim>
					<dim>1</dim>
				</port>
			</output>
		</layer>
		<layer id="22" name="BatchNormalization_16/variance/Fused_Add_" type="Add" version="opset1">
			<input>
				<port id="0">
					<dim>1</dim>
					<dim>16</dim>
					<dim>208</dim>
					<dim>208</dim>
				</port>
				<port id="1">
					<dim>1</dim>
					<dim>16</dim>
					<dim>1</dim>
					<dim>1</dim>
				</port>
			</input>
			<output>
				<port id="2" precision="FP16">
					<dim>1</dim>
					<dim>16</dim>
					<dim>208</dim>
					<dim>208</dim>
				</port>
			</output>
		</layer>
		<layer id="23" name="BatchNormalization_18/mean/Fused_Mul_3668436686_const" type="Const" version="opset1">
			<data element_type="f16" offset="5604" shape="96,16,1,1" size="3072"/>
			<output>
				<port id="1" precision="FP16">
					<dim>96</dim>
					<dim>16</dim>
					<dim>1</dim>
					<dim>1</dim>
				</port>
			</output>
		</layer>
		<layer id="24" name="Conv_17" type="Convolution" version="opset1">
			<data dilations="1,1" output_padding="0,0" pads_begin="0,0" pads_end="0,0" strides="1,1"/>
			<input>
				<port id="0">
					<dim>1</dim>
					<dim>16</dim>
					<dim>208</dim>
					<dim>208</dim>
				</port>
				<port id="1">
					<dim>96</dim>
					<dim>16</dim>
					<dim>1</dim>
					<dim>1</dim>
				</port>
			</input>
			<output>
				<port id="2" precision="FP16">
					<dim>1</dim>
					<dim>96</dim>
					<dim>208</dim>
					<dim>208</dim>
				</port>
			</output>
		</layer>
		<layer id="25" name="data_add_3402434029/copy_const" type="Const" version="opset1">
			<data element_type="f16" offset="8676" shape="1,96,1,1" size="192"/>
			<output>
				<port id="1" precision="FP16">
					<dim>1</dim>
					<dim>96</dim>
					<dim>1</dim>
					<dim>1</dim>
				</port>
			</output>
		</layer>
		<layer id="26" name="BatchNormalization_18/variance/Fused_Add_" type="Add" version="opset1">
			<input>
				<port id="0">
					<dim>1</dim>
					<dim>96</dim>
					<dim>208</dim>
					<dim>208</dim>
				</port>
				<port id="1">
					<dim>1</dim>
					<dim>96</dim>
					<dim>1</dim>
					<dim>1</dim>
				</port>
			</input>
			<output>
				<port id="2" precision="FP16">
					<dim>1</dim>
					<dim>96</dim>
					<dim>208</dim>
					<dim>208</dim>
				</port>
			</output>
		</layer>
		<layer id="27" name="Clip_19" type="Clamp" version="opset1">
			<data max="6.0" min="0.0"/>
			<input>
				<port id="0">
					<dim>1</dim>
					<dim>96</dim>
					<dim>208</dim>
					<dim>208</dim>
				</port>
			</input>
			<output>
				<port id="1" precision="FP16">
					<dim>1</dim>
					<dim>96</dim>
					<dim>208</dim>
					<dim>208</dim>
				</port>
			</output>
		</layer>
		<layer id="28" name="7016770170_const" type="Const" version="opset1">
			<data element_type="f16" offset="8868" shape="96,1,1,3,3" size="1728"/>
			<output>
				<port id="1" precision="FP16">
					<dim>96</dim>
					<dim>1</dim>
					<dim>1</dim>
					<dim>3</dim>
					<dim>3</dim>
				</port>
			</output>
		</layer>
		<layer id="29" name="Conv_20" type="GroupConvolution" version="opset1">
			<data dilations="1,1" output_padding="0,0" pads_begin="1,1" pads_end="1,1" strides="2,2"/>
			<input>
				<port id="0">
					<dim>1</dim>
					<dim>96</dim>
					<dim>208</dim>
					<dim>208</dim>
				</port>
				<port id="1">
					<dim>96</dim>
					<dim>1</dim>
					<dim>1</dim>
					<dim>3</dim>
					<dim>3</dim>
				</port>
			</input>
			<output>
				<port id="2" precision="FP16">
					<dim>1</dim>
					<dim>96</dim>
					<dim>104</dim>
					<dim>104</dim>
				</port>
			</output>
		</layer>
		<layer id="30" name="data_add_3403234037/copy_const" type="Const" version="opset1">
			<data element_type="f16" offset="10596" shape="1,96,1,1" size="192"/>
			<output>
				<port id="1" precision="FP16">
					<dim>1</dim>
					<dim>96</dim>
					<dim>1</dim>
					<dim>1</dim>
				</port>
			</output>
		</layer>
		<layer id="31" name="BatchNormalization_21/variance/Fused_Add_" type="Add" version="opset1">
			<input>
				<port id="0">
					<dim>1</dim>
					<dim>96</dim>
					<dim>104</dim>
					<dim>104</dim>
				</port>
				<port id="1">
					<dim>1</dim>
					<dim>96</dim>
					<dim>1</dim>
					<dim>1</dim>
				</port>
			</input>
			<output>
				<port id="2" precision="FP16">
					<dim>1</dim>
					<dim>96</dim>
					<dim>104</dim>
					<dim>104</dim>
				</port>
			</output>
		</layer>
		<layer id="32" name="Clip_22" type="Clamp" version="opset1">
			<data max="6.0" min="0.0"/>
			<input>
				<port id="0">
					<dim>1</dim>
					<dim>96</dim>
					<dim>104</dim>
					<dim>104</dim>
				</port>
			</input>
			<output>
				<port id="1" precision="FP16">
					<dim>1</dim>
					<dim>96</dim>
					<dim>104</dim>
					<dim>104</dim>
				</port>
			</output>
		</layer>
		<layer id="33" name="BatchNormalization_24/mean/Fused_Mul_3669236694_const" type="Const" version="opset1">
			<data element_type="f16" offset="10788" shape="24,96,1,1" size="4608"/>
			<output>
				<port id="1" precision="FP16">
					<dim>24</dim>
					<dim>96</dim>
					<dim>1</dim>
					<dim>1</dim>
				</port>
			</output>
		</layer>
		<layer id="34" name="Conv_23" type="Convolution" version="opset1">
			<data dilations="1,1" output_padding="0,0" pads_begin="0,0" pads_end="0,0" strides="1,1"/>
			<input>
				<port id="0">
					<dim>1</dim>
					<dim>96</dim>
					<dim>104</dim>
					<dim>104</dim>
				</port>
				<port id="1">
					<dim>24</dim>
					<dim>96</dim>
					<dim>1</dim>
					<dim>1</dim>
				</port>
			</input>
			<output>
				<port id="2" precision="FP16">
					<dim>1</dim>
					<dim>24</dim>
					<dim>104</dim>
					<dim>104</dim>
				</port>
			</output>
		</layer>
		<layer id="35" name="data_add_3404034045/copy_const" type="Const" version="opset1">
			<data element_type="f16" offset="15396" shape="1,24,1,1" size="48"/>
			<output>
				<port id="1" precision="FP16">
					<dim>1</dim>
					<dim>24</dim>
					<dim>1</dim>
					<dim>1</dim>
				</port>
			</output>
		</layer>
		<layer id="36" name="BatchNormalization_24/variance/Fused_Add_" type="Add" version="opset1">
			<input>
				<port id="0">
					<dim>1</dim>
					<dim>24</dim>
					<dim>104</dim>
					<dim>104</dim>
				</port>
				<port id="1">
					<dim>1</dim>
					<dim>24</dim>
					<dim>1</dim>
					<dim>1</dim>
				</port>
			</input>
			<output>
				<port id="2" precision="FP16">
					<dim>1</dim>
					<dim>24</dim>
					<dim>104</dim>
					<dim>104</dim>
				</port>
			</output>
		</layer>
		<layer id="37" name="BatchNormalization_26/mean/Fused_Mul_3669636698_const" type="Const" version="opset1">
			<data element_type="f16" offset="15444" shape="144,24,1,1" size="6912"/>
			<output>
				<port id="1" precision="FP16">
					<dim>144</dim>
					<dim>24</dim>
					<dim>1</dim>
					<dim>1</dim>
				</port>
			</output>
		</layer>
		<layer id="38" name="Conv_25" type="Convolution" version="opset1">
			<data dilations="1,1" output_padding="0,0" pads_begin="0,0" pads_end="0,0" strides="1,1"/>
			<input>
				<port id="0">
					<dim>1</dim>
					<dim>24</dim>
					<dim>104</dim>
					<dim>104</dim>
				</port>
				<port id="1">
					<dim>144</dim>
					<dim>24</dim>
					<dim>1</dim>
					<dim>1</dim>
				</port>
			</input>
			<output>
				<port id="2" precision="FP16">
					<dim>1</dim>
					<dim>144</dim>
					<dim>104</dim>
					<dim>104</dim>
				</port>
			</output>
		</layer>
		<layer id="39" name="data_add_3404834053/copy_const" type="Const" version="opset1">
			<data element_type="f16" offset="22356" shape="1,144,1,1" size="288"/>
			<output>
				<port id="1" precision="FP16">
					<dim>1</dim>
					<dim>144</dim>
					<dim>1</dim>
					<dim>1</dim>
				</port>
			</output>
		</layer>
		<layer id="40" name="BatchNormalization_26/variance/Fused_Add_" type="Add" version="opset1">
			<input>
				<port id="0">
					<dim>1</dim>
					<dim>144</dim>
					<dim>104</dim>
					<dim>104</dim>
				</port>
				<port id="1">
					<dim>1</dim>
					<dim>144</dim>
					<dim>1</dim>
					<dim>1</dim>
				</port>
			</input>
			<output>
				<port id="2" precision="FP16">
					<dim>1</dim>
					<dim>144</dim>
					<dim>104</dim>
					<dim>104</dim>
				</port>
			</output>
		</layer>
		<layer id="41" name="Clip_27" type="Clamp" version="opset1">
			<data max="6.0" min="0.0"/>
			<input>
				<port id="0">
					<dim>1</dim>
					<dim>144</dim>
					<dim>104</dim>
					<dim>104</dim>
				</port>
			</input>
			<output>
				<port id="1" precision="FP16">
					<dim>1</dim>
					<dim>144</dim>
					<dim>104</dim>
					<dim>104</dim>
				</port>
			</output>
		</layer>
		<layer id="42" name="7012370126_const" type="Const" version="opset1">
			<data element_type="f16" offset="22644" shape="144,1,1,3,3" size="2592"/>
			<output>
				<port id="1" precision="FP16">
					<dim>144</dim>
					<dim>1</dim>
					<dim>1</dim>
					<dim>3</dim>
					<dim>3</dim>
				</port>
			</output>
		</layer>
		<layer id="43" name="Conv_28" type="GroupConvolution" version="opset1">
			<data dilations="1,1" output_padding="0,0" pads_begin="1,1" pads_end="1,1" strides="1,1"/>
			<input>
				<port id="0">
					<dim>1</dim>
					<dim>144</dim>
					<dim>104</dim>
					<dim>104</dim>
				</port>
				<port id="1">
					<dim>144</dim>
					<dim>1</dim>
					<dim>1</dim>
					<dim>3</dim>
					<dim>3</dim>
				</port>
			</input>
			<output>
				<port id="2" precision="FP16">
					<dim>1</dim>
					<dim>144</dim>
					<dim>104</dim>
					<dim>104</dim>
				</port>
			</output>
		</layer>
		<layer id="44" name="data_add_3405634061/copy_const" type="Const" version="opset1">
			<data element_type="f16" offset="25236" shape="1,144,1,1" size="288"/>
			<output>
				<port id="1" precision="FP16">
					<dim>1</dim>
					<dim>144</dim>
					<dim>1</dim>
					<dim>1</dim>
				</port>
			</output>
		</layer>
		<layer id="45" name="BatchNormalization_29/variance/Fused_Add_" type="Add" version="opset1">
			<input>
				<port id="0">
					<dim>1</dim>
					<dim>144</dim>
					<dim>104</dim>
					<dim>104</dim>
				</port>
				<port id="1">
					<dim>1</dim>
					<dim>144</dim>
					<dim>1</dim>
					<dim>1</dim>
				</port>
			</input>
			<output>
				<port id="2" precision="FP16">
					<dim>1</dim>
					<dim>144</dim>
					<dim>104</dim>
					<dim>104</dim>
				</port>
			</output>
		</layer>
		<layer id="46" name="Clip_30" type="Clamp" version="opset1">
			<data max="6.0" min="0.0"/>
			<input>
				<port id="0">
					<dim>1</dim>
					<dim>144</dim>
					<dim>104</dim>
					<dim>104</dim>
				</port>
			</input>
			<output>
				<port id="1" precision="FP16">
					<dim>1</dim>
					<dim>144</dim>
					<dim>104</dim>
					<dim>104</dim>
				</port>
			</output>
		</layer>
		<layer id="47" name="BatchNormalization_32/mean/Fused_Mul_3670436706_const" type="Const" version="opset1">
			<data element_type="f16" offset="25524" shape="24,144,1,1" size="6912"/>
			<output>
				<port id="1" precision="FP16">
					<dim>24</dim>
					<dim>144</dim>
					<dim>1</dim>
					<dim>1</dim>
				</port>
			</output>
		</layer>
		<layer id="48" name="Conv_31" type="Convolution" version="opset1">
			<data dilations="1,1" output_padding="0,0" pads_begin="0,0" pads_end="0,0" strides="1,1"/>
			<input>
				<port id="0">
					<dim>1</dim>
					<dim>144</dim>
					<dim>104</dim>
					<dim>104</dim>
				</port>
				<port id="1">
					<dim>24</dim>
					<dim>144</dim>
					<dim>1</dim>
					<dim>1</dim>
				</port>
			</input>
			<output>
				<port id="2" precision="FP16">
					<dim>1</dim>
					<dim>24</dim>
					<dim>104</dim>
					<dim>104</dim>
				</port>
			</output>
		</layer>
		<layer id="49" name="data_add_3406434069/copy_const" type="Const" version="opset1">
			<data element_type="f16" offset="32436" shape="1,24,1,1" size="48"/>
			<output>
				<port id="1" precision="FP16">
					<dim>1</dim>
					<dim>24</dim>
					<dim>1</dim>
					<dim>1</dim>
				</port>
			</output>
		</layer>
		<layer id="50" name="BatchNormalization_32/variance/Fused_Add_" type="Add" version="opset1">
			<input>
				<port id="0">
					<dim>1</dim>
					<dim>24</dim>
					<dim>104</dim>
					<dim>104</dim>
				</port>
				<port id="1">
					<dim>1</dim>
					<dim>24</dim>
					<dim>1</dim>
					<dim>1</dim>
				</port>
			</input>
			<output>
				<port id="2" precision="FP16">
					<dim>1</dim>
					<dim>24</dim>
					<dim>104</dim>
					<dim>104</dim>
				</port>
			</output>
		</layer>
		<layer id="51" name="Add_33" type="Add" version="opset1">
			<input>
				<port id="0">
					<dim>1</dim>
					<dim>24</dim>
					<dim>104</dim>
					<dim>104</dim>
				</port>
				<port id="1">
					<dim>1</dim>
					<dim>24</dim>
					<dim>104</dim>
					<dim>104</dim>
				</port>
			</input>
			<output>
				<port id="2" precision="FP16">
					<dim>1</dim>
					<dim>24</dim>
					<dim>104</dim>
					<dim>104</dim>
				</port>
			</output>
		</layer>
		<layer id="52" name="BatchNormalization_35/mean/Fused_Mul_3670836710_const" type="Const" version="opset1">
			<data element_type="f16" offset="32484" shape="144,24,1,1" size="6912"/>
			<output>
				<port id="1" precision="FP16">
					<dim>144</dim>
					<dim>24</dim>
					<dim>1</dim>
					<dim>1</dim>
				</port>
			</output>
		</layer>
		<layer id="53" name="Conv_34" type="Convolution" version="opset1">
			<data dilations="1,1" output_padding="0,0" pads_begin="0,0" pads_end="0,0" strides="1,1"/>
			<input>
				<port id="0">
					<dim>1</dim>
					<dim>24</dim>
					<dim>104</dim>
					<dim>104</dim>
				</port>
				<port id="1">
					<dim>144</dim>
					<dim>24</dim>
					<dim>1</dim>
					<dim>1</dim>
				</port>
			</input>
			<output>
				<port id="2" precision="FP16">
					<dim>1</dim>
					<dim>144</dim>
					<dim>104</dim>
					<dim>104</dim>
				</port>
			</output>
		</layer>
		<layer id="54" name="data_add_3407234077/copy_const" type="Const" version="opset1">
			<data element_type="f16" offset="39396" shape="1,144,1,1" size="288"/>
			<output>
				<port id="1" precision="FP16">
					<dim>1</dim>
					<dim>144</dim>
					<dim>1</dim>
					<dim>1</dim>
				</port>
			</output>
		</layer>
		<layer id="55" name="BatchNormalization_35/variance/Fused_Add_" type="Add" version="opset1">
			<input>
				<port id="0">
					<dim>1</dim>
					<dim>144</dim>
					<dim>104</dim>
					<dim>104</dim>
				</port>
				<port id="1">
					<dim>1</dim>
					<dim>144</dim>
					<dim>1</dim>
					<dim>1</dim>
				</port>
			</input>
			<output>
				<port id="2" precision="FP16">
					<dim>1</dim>
					<dim>144</dim>
					<dim>104</dim>
					<dim>104</dim>
				</port>
			</output>
		</layer>
		<layer id="56" name="Clip_36" type="Clamp" version="opset1">
			<data max="6.0" min="0.0"/>
			<input>
				<port id="0">
					<dim>1</dim>
					<dim>144</dim>
					<dim>104</dim>
					<dim>104</dim>
				</port>
			</input>
			<output>
				<port id="1" precision="FP16">
					<dim>1</dim>
					<dim>144</dim>
					<dim>104</dim>
					<dim>104</dim>
				</port>
			</output>
		</layer>
		<layer id="57" name="7011970122_const" type="Const" version="opset1">
			<data element_type="f16" offset="39684" shape="144,1,1,3,3" size="2592"/>
			<output>
				<port id="1" precision="FP16">
					<dim>144</dim>
					<dim>1</dim>
					<dim>1</dim>
					<dim>3</dim>
					<dim>3</dim>
				</port>
			</output>
		</layer>
		<layer id="58" name="Conv_37" type="GroupConvolution" version="opset1">
			<data dilations="1,1" output_padding="0,0" pads_begin="1,1" pads_end="1,1" strides="2,2"/>
			<input>
				<port id="0">
					<dim>1</dim>
					<dim>144</dim>
					<dim>104</dim>
					<dim>104</dim>
				</port>
				<port id="1">
					<dim>144</dim>
					<dim>1</dim>
					<dim>1</dim>
					<dim>3</dim>
					<dim>3</dim>
				</port>
			</input>
			<output>
				<port id="2" precision="FP16">
					<dim>1</dim>
					<dim>144</dim>
					<dim>52</dim>
					<dim>52</dim>
				</port>
			</output>
		</layer>
		<layer id="59" name="data_add_3408034085/copy_const" type="Const" version="opset1">
			<data element_type="f16" offset="42276" shape="1,144,1,1" size="288"/>
			<output>
				<port id="1" precision="FP16">
					<dim>1</dim>
					<dim>144</dim>
					<dim>1</dim>
					<dim>1</dim>
				</port>
			</output>
		</layer>
		<layer id="60" name="BatchNormalization_38/variance/Fused_Add_" type="Add" version="opset1">
			<input>
				<port id="0">
					<dim>1</dim>
					<dim>144</dim>
					<dim>52</dim>
					<dim>52</dim>
				</port>
				<port id="1">
					<dim>1</dim>
					<dim>144</dim>
					<dim>1</dim>
					<dim>1</dim>
				</port>
			</input>
			<output>
				<port id="2" precision="FP16">
					<dim>1</dim>
					<dim>144</dim>
					<dim>52</dim>
					<dim>52</dim>
				</port>
			</output>
		</layer>
		<layer id="61" name="Clip_39" type="Clamp" version="opset1">
			<data max="6.0" min="0.0"/>
			<input>
				<port id="0">
					<dim>1</dim>
					<dim>144</dim>
					<dim>52</dim>
					<dim>52</dim>
				</port>
			</input>
			<output>
				<port id="1" precision="FP16">
					<dim>1</dim>
					<dim>144</dim>
					<dim>52</dim>
					<dim>52</dim>
				</port>
			</output>
		</layer>
		<layer id="62" name="BatchNormalization_41/mean/Fused_Mul_3671636718_const" type="Const" version="opset1">
			<data element_type="f16" offset="42564" shape="32,144,1,1" size="9216"/>
			<output>
				<port id="1" precision="FP16">
					<dim>32</dim>
					<dim>144</dim>
					<dim>1</dim>
					<dim>1</dim>
				</port>
			</output>
		</layer>
		<layer id="63" name="Conv_40" type="Convolution" version="opset1">
			<data dilations="1,1" output_padding="0,0" pads_begin="0,0" pads_end="0,0" strides="1,1"/>
			<input>
				<port id="0">
					<dim>1</dim>
					<dim>144</dim>
					<dim>52</dim>
					<dim>52</dim>
				</port>
				<port id="1">
					<dim>32</dim>
					<dim>144</dim>
					<dim>1</dim>
					<dim>1</dim>
				</port>
			</input>
			<output>
				<port id="2" precision="FP16">
					<dim>1</dim>
					<dim>32</dim>
					<dim>52</dim>
					<dim>52</dim>
				</port>
			</output>
		</layer>
		<layer id="64" name="data_add_3408834093/copy_const" type="Const" version="opset1">
			<data element_type="f16" offset="51780" shape="1,32,1,1" size="64"/>
			<output>
				<port id="1" precision="FP16">
					<dim>1</dim>
					<dim>32</dim>
					<dim>1</dim>
					<dim>1</dim>
				</port>
			</output>
		</layer>
		<layer id="65" name="BatchNormalization_41/variance/Fused_Add_" type="Add" version="opset1">
			<input>
				<port id="0">
					<dim>1</dim>
					<dim>32</dim>
					<dim>52</dim>
					<dim>52</dim>
				</port>
				<port id="1">
					<dim>1</dim>
					<dim>32</dim>
					<dim>1</dim>
					<dim>1</dim>
				</port>
			</input>
			<output>
				<port id="2" precision="FP16">
					<dim>1</dim>
					<dim>32</dim>
					<dim>52</dim>
					<dim>52</dim>
				</port>
			</output>
		</layer>
		<layer id="66" name="BatchNormalization_43/mean/Fused_Mul_3672036722_const" type="Const" version="opset1">
			<data element_type="f16" offset="51844" shape="192,32,1,1" size="12288"/>
			<output>
				<port id="1" precision="FP16">
					<dim>192</dim>
					<dim>32</dim>
					<dim>1</dim>
					<dim>1</dim>
				</port>
			</output>
		</layer>
		<layer id="67" name="Conv_42" type="Convolution" version="opset1">
			<data dilations="1,1" output_padding="0,0" pads_begin="0,0" pads_end="0,0" strides="1,1"/>
			<input>
				<port id="0">
					<dim>1</dim>
					<dim>32</dim>
					<dim>52</dim>
					<dim>52</dim>
				</port>
				<port id="1">
					<dim>192</dim>
					<dim>32</dim>
					<dim>1</dim>
					<dim>1</dim>
				</port>
			</input>
			<output>
				<port id="2" precision="FP16">
					<dim>1</dim>
					<dim>192</dim>
					<dim>52</dim>
					<dim>52</dim>
				</port>
			</output>
		</layer>
		<layer id="68" name="data_add_3409634101/copy_const" type="Const" version="opset1">
			<data element_type="f16" offset="64132" shape="1,192,1,1" size="384"/>
			<output>
				<port id="1" precision="FP16">
					<dim>1</dim>
					<dim>192</dim>
					<dim>1</dim>
					<dim>1</dim>
				</port>
			</output>
		</layer>
		<layer id="69" name="BatchNormalization_43/variance/Fused_Add_" type="Add" version="opset1">
			<input>
				<port id="0">
					<dim>1</dim>
					<dim>192</dim>
					<dim>52</dim>
					<dim>52</dim>
				</port>
				<port id="1">
					<dim>1</dim>
					<dim>192</dim>
					<dim>1</dim>
					<dim>1</dim>
				</port>
			</input>
			<output>
				<port id="2" precision="FP16">
					<dim>1</dim>
					<dim>192</dim>
					<dim>52</dim>
					<dim>52</dim>
				</port>
			</output>
		</layer>
		<layer id="70" name="Clip_44" type="Clamp" version="opset1">
			<data max="6.0" min="0.0"/>
			<input>
				<port id="0">
					<dim>1</dim>
					<dim>192</dim>
					<dim>52</dim>
					<dim>52</dim>
				</port>
			</input>
			<output>
				<port id="1" precision="FP16">
					<dim>1</dim>
					<dim>192</dim>
					<dim>52</dim>
					<dim>52</dim>
				</port>
			</output>
		</layer>
		<layer id="71" name="7015570158_const" type="Const" version="opset1">
			<data element_type="f16" offset="64516" shape="192,1,1,3,3" size="3456"/>
			<output>
				<port id="1" precision="FP16">
					<dim>192</dim>
					<dim>1</dim>
					<dim>1</dim>
					<dim>3</dim>
					<dim>3</dim>
				</port>
			</output>
		</layer>
		<layer id="72" name="Conv_45" type="GroupConvolution" version="opset1">
			<data dilations="1,1" output_padding="0,0" pads_begin="1,1" pads_end="1,1" strides="1,1"/>
			<input>
				<port id="0">
					<dim>1</dim>
					<dim>192</dim>
					<dim>52</dim>
					<dim>52</dim>
				</port>
				<port id="1">
					<dim>192</dim>
					<dim>1</dim>
					<dim>1</dim>
					<dim>3</dim>
					<dim>3</dim>
				</port>
			</input>
			<output>
				<port id="2" precision="FP16">
					<dim>1</dim>
					<dim>192</dim>
					<dim>52</dim>
					<dim>52</dim>
				</port>
			</output>
		</layer>
		<layer id="73" name="data_add_3410434109/copy_const" type="Const" version="opset1">
			<data element_type="f16" offset="67972" shape="1,192,1,1" size="384"/>
			<output>
				<port id="1" precision="FP16">
					<dim>1</dim>
					<dim>192</dim>
					<dim>1</dim>
					<dim>1</dim>
				</port>
			</output>
		</layer>
		<layer id="74" name="BatchNormalization_46/variance/Fused_Add_" type="Add" version="opset1">
			<input>
				<port id="0">
					<dim>1</dim>
					<dim>192</dim>
					<dim>52</dim>
					<dim>52</dim>
				</port>
				<port id="1">
					<dim>1</dim>
					<dim>192</dim>
					<dim>1</dim>
					<dim>1</dim>
				</port>
			</input>
			<output>
				<port id="2" precision="FP16">
					<dim>1</dim>
					<dim>192</dim>
					<dim>52</dim>
					<dim>52</dim>
				</port>
			</output>
		</layer>
		<layer id="75" name="Clip_47" type="Clamp" version="opset1">
			<data max="6.0" min="0.0"/>
			<input>
				<port id="0">
					<dim>1</dim>
					<dim>192</dim>
					<dim>52</dim>
					<dim>52</dim>
				</port>
			</input>
			<output>
				<port id="1" precision="FP16">
					<dim>1</dim>
					<dim>192</dim>
					<dim>52</dim>
					<dim>52</dim>
				</port>
			</output>
		</layer>
		<layer id="76" name="BatchNormalization_49/mean/Fused_Mul_3672836730_const" type="Const" version="opset1">
			<data element_type="f16" offset="68356" shape="32,192,1,1" size="12288"/>
			<output>
				<port id="1" precision="FP16">
					<dim>32</dim>
					<dim>192</dim>
					<dim>1</dim>
					<dim>1</dim>
				</port>
			</output>
		</layer>
		<layer id="77" name="Conv_48" type="Convolution" version="opset1">
			<data dilations="1,1" output_padding="0,0" pads_begin="0,0" pads_end="0,0" strides="1,1"/>
			<input>
				<port id="0">
					<dim>1</dim>
					<dim>192</dim>
					<dim>52</dim>
					<dim>52</dim>
				</port>
				<port id="1">
					<dim>32</dim>
					<dim>192</dim>
					<dim>1</dim>
					<dim>1</dim>
				</port>
			</input>
			<output>
				<port id="2" precision="FP16">
					<dim>1</dim>
					<dim>32</dim>
					<dim>52</dim>
					<dim>52</dim>
				</port>
			</output>
		</layer>
		<layer id="78" name="data_add_3411234117/copy_const" type="Const" version="opset1">
			<data element_type="f16" offset="80644" shape="1,32,1,1" size="64"/>
			<output>
				<port id="1" precision="FP16">
					<dim>1</dim>
					<dim>32</dim>
					<dim>1</dim>
					<dim>1</dim>
				</port>
			</output>
		</layer>
		<layer id="79" name="BatchNormalization_49/variance/Fused_Add_" type="Add" version="opset1">
			<input>
				<port id="0">
					<dim>1</dim>
					<dim>32</dim>
					<dim>52</dim>
					<dim>52</dim>
				</port>
				<port id="1">
					<dim>1</dim>
					<dim>32</dim>
					<dim>1</dim>
					<dim>1</dim>
				</port>
			</input>
			<output>
				<port id="2" precision="FP16">
					<dim>1</dim>
					<dim>32</dim>
					<dim>52</dim>
					<dim>52</dim>
				</port>
			</output>
		</layer>
		<layer id="80" name="Add_50" type="Add" version="opset1">
			<input>
				<port id="0">
					<dim>1</dim>
					<dim>32</dim>
					<dim>52</dim>
					<dim>52</dim>
				</port>
				<port id="1">
					<dim>1</dim>
					<dim>32</dim>
					<dim>52</dim>
					<dim>52</dim>
				</port>
			</input>
			<output>
				<port id="2" precision="FP16">
					<dim>1</dim>
					<dim>32</dim>
					<dim>52</dim>
					<dim>52</dim>
				</port>
			</output>
		</layer>
		<layer id="81" name="BatchNormalization_52/mean/Fused_Mul_3673236734_const" type="Const" version="opset1">
			<data element_type="f16" offset="80708" shape="192,32,1,1" size="12288"/>
			<output>
				<port id="1" precision="FP16">
					<dim>192</dim>
					<dim>32</dim>
					<dim>1</dim>
					<dim>1</dim>
				</port>
			</output>
		</layer>
		<layer id="82" name="Conv_51" type="Convolution" version="opset1">
			<data dilations="1,1" output_padding="0,0" pads_begin="0,0" pads_end="0,0" strides="1,1"/>
			<input>
				<port id="0">
					<dim>1</dim>
					<dim>32</dim>
					<dim>52</dim>
					<dim>52</dim>
				</port>
				<port id="1">
					<dim>192</dim>
					<dim>32</dim>
					<dim>1</dim>
					<dim>1</dim>
				</port>
			</input>
			<output>
				<port id="2" precision="FP16">
					<dim>1</dim>
					<dim>192</dim>
					<dim>52</dim>
					<dim>52</dim>
				</port>
			</output>
		</layer>
		<layer id="83" name="data_add_3412034125/copy_const" type="Const" version="opset1">
			<data element_type="f16" offset="92996" shape="1,192,1,1" size="384"/>
			<output>
				<port id="1" precision="FP16">
					<dim>1</dim>
					<dim>192</dim>
					<dim>1</dim>
					<dim>1</dim>
				</port>
			</output>
		</layer>
		<layer id="84" name="BatchNormalization_52/variance/Fused_Add_" type="Add" version="opset1">
			<input>
				<port id="0">
					<dim>1</dim>
					<dim>192</dim>
					<dim>52</dim>
					<dim>52</dim>
				</port>
				<port id="1">
					<dim>1</dim>
					<dim>192</dim>
					<dim>1</dim>
					<dim>1</dim>
				</port>
			</input>
			<output>
				<port id="2" precision="FP16">
					<dim>1</dim>
					<dim>192</dim>
					<dim>52</dim>
					<dim>52</dim>
				</port>
			</output>
		</layer>
		<layer id="85" name="Clip_53" type="Clamp" version="opset1">
			<data max="6.0" min="0.0"/>
			<input>
				<port id="0">
					<dim>1</dim>
					<dim>192</dim>
					<dim>52</dim>
					<dim>52</dim>
				</port>
			</input>
			<output>
				<port id="1" precision="FP16">
					<dim>1</dim>
					<dim>192</dim>
					<dim>52</dim>
					<dim>52</dim>
				</port>
			</output>
		</layer>
		<layer id="86" name="7014370146_const" type="Const" version="opset1">
			<data element_type="f16" offset="93380" shape="192,1,1,3,3" size="3456"/>
			<output>
				<port id="1" precision="FP16">
					<dim>192</dim>
					<dim>1</dim>
					<dim>1</dim>
					<dim>3</dim>
					<dim>3</dim>
				</port>
			</output>
		</layer>
		<layer id="87" name="Conv_54" type="GroupConvolution" version="opset1">
			<data dilations="1,1" output_padding="0,0" pads_begin="1,1" pads_end="1,1" strides="1,1"/>
			<input>
				<port id="0">
					<dim>1</dim>
					<dim>192</dim>
					<dim>52</dim>
					<dim>52</dim>
				</port>
				<port id="1">
					<dim>192</dim>
					<dim>1</dim>
					<dim>1</dim>
					<dim>3</dim>
					<dim>3</dim>
				</port>
			</input>
			<output>
				<port id="2" precision="FP16">
					<dim>1</dim>
					<dim>192</dim>
					<dim>52</dim>
					<dim>52</dim>
				</port>
			</output>
		</layer>
		<layer id="88" name="data_add_3412834133/copy_const" type="Const" version="opset1">
			<data element_type="f16" offset="96836" shape="1,192,1,1" size="384"/>
			<output>
				<port id="1" precision="FP16">
					<dim>1</dim>
					<dim>192</dim>
					<dim>1</dim>
					<dim>1</dim>
				</port>
			</output>
		</layer>
		<layer id="89" name="BatchNormalization_55/variance/Fused_Add_" type="Add" version="opset1">
			<input>
				<port id="0">
					<dim>1</dim>
					<dim>192</dim>
					<dim>52</dim>
					<dim>52</dim>
				</port>
				<port id="1">
					<dim>1</dim>
					<dim>192</dim>
					<dim>1</dim>
					<dim>1</dim>
				</port>
			</input>
			<output>
				<port id="2" precision="FP16">
					<dim>1</dim>
					<dim>192</dim>
					<dim>52</dim>
					<dim>52</dim>
				</port>
			</output>
		</layer>
		<layer id="90" name="Clip_56" type="Clamp" version="opset1">
			<data max="6.0" min="0.0"/>
			<input>
				<port id="0">
					<dim>1</dim>
					<dim>192</dim>
					<dim>52</dim>
					<dim>52</dim>
				</port>
			</input>
			<output>
				<port id="1" precision="FP16">
					<dim>1</dim>
					<dim>192</dim>
					<dim>52</dim>
					<dim>52</dim>
				</port>
			</output>
		</layer>
		<layer id="91" name="BatchNormalization_58/mean/Fused_Mul_3674036742_const" type="Const" version="opset1">
			<data element_type="f16" offset="97220" shape="32,192,1,1" size="12288"/>
			<output>
				<port id="1" precision="FP16">
					<dim>32</dim>
					<dim>192</dim>
					<dim>1</dim>
					<dim>1</dim>
				</port>
			</output>
		</layer>
		<layer id="92" name="Conv_57" type="Convolution" version="opset1">
			<data dilations="1,1" output_padding="0,0" pads_begin="0,0" pads_end="0,0" strides="1,1"/>
			<input>
				<port id="0">
					<dim>1</dim>
					<dim>192</dim>
					<dim>52</dim>
					<dim>52</dim>
				</port>
				<port id="1">
					<dim>32</dim>
					<dim>192</dim>
					<dim>1</dim>
					<dim>1</dim>
				</port>
			</input>
			<output>
				<port id="2" precision="FP16">
					<dim>1</dim>
					<dim>32</dim>
					<dim>52</dim>
					<dim>52</dim>
				</port>
			</output>
		</layer>
		<layer id="93" name="data_add_3413634141/copy_const" type="Const" version="opset1">
			<data element_type="f16" offset="109508" shape="1,32,1,1" size="64"/>
			<output>
				<port id="1" precision="FP16">
					<dim>1</dim>
					<dim>32</dim>
					<dim>1</dim>
					<dim>1</dim>
				</port>
			</output>
		</layer>
		<layer id="94" name="BatchNormalization_58/variance/Fused_Add_" type="Add" version="opset1">
			<input>
				<port id="0">
					<dim>1</dim>
					<dim>32</dim>
					<dim>52</dim>
					<dim>52</dim>
				</port>
				<port id="1">
					<dim>1</dim>
					<dim>32</dim>
					<dim>1</dim>
					<dim>1</dim>
				</port>
			</input>
			<output>
				<port id="2" precision="FP16">
					<dim>1</dim>
					<dim>32</dim>
					<dim>52</dim>
					<dim>52</dim>
				</port>
			</output>
		</layer>
		<layer id="95" name="Add_59" type="Add" version="opset1">
			<input>
				<port id="0">
					<dim>1</dim>
					<dim>32</dim>
					<dim>52</dim>
					<dim>52</dim>
				</port>
				<port id="1">
					<dim>1</dim>
					<dim>32</dim>
					<dim>52</dim>
					<dim>52</dim>
				</port>
			</input>
			<output>
				<port id="2" precision="FP16">
					<dim>1</dim>
					<dim>32</dim>
					<dim>52</dim>
					<dim>52</dim>
				</port>
			</output>
		</layer>
		<layer id="96" name="onnx_initializer_node_neck.lateral_convs.0.conv.weight/Output_0/Data__const" type="Const" version="opset1">
			<data element_type="f16" offset="109572" shape="48,32,1,1" size="3072"/>
			<output>
				<port id="1" precision="FP16">
					<dim>48</dim>
					<dim>32</dim>
					<dim>1</dim>
					<dim>1</dim>
				</port>
			</output>
		</layer>
		<layer id="97" name="Conv_155/WithoutBiases" type="Convolution" version="opset1">
			<data dilations="1,1" output_padding="0,0" pads_begin="0,0" pads_end="0,0" strides="1,1"/>
			<input>
				<port id="0">
					<dim>1</dim>
					<dim>32</dim>
					<dim>52</dim>
					<dim>52</dim>
				</port>
				<port id="1">
					<dim>48</dim>
					<dim>32</dim>
					<dim>1</dim>
					<dim>1</dim>
				</port>
			</input>
			<output>
				<port id="2" precision="FP16">
					<dim>1</dim>
					<dim>48</dim>
					<dim>52</dim>
					<dim>52</dim>
				</port>
			</output>
		</layer>
		<layer id="98" name="Conv_155/Dims21212/copy_const" type="Const" version="opset1">
			<data element_type="f16" offset="112644" shape="1,48,1,1" size="96"/>
			<output>
				<port id="1" precision="FP16">
					<dim>1</dim>
					<dim>48</dim>
					<dim>1</dim>
					<dim>1</dim>
				</port>
			</output>
		</layer>
		<layer id="99" name="Conv_155" type="Add" version="opset1">
			<input>
				<port id="0">
					<dim>1</dim>
					<dim>48</dim>
					<dim>52</dim>
					<dim>52</dim>
				</port>
				<port id="1">
					<dim>1</dim>
					<dim>48</dim>
					<dim>1</dim>
					<dim>1</dim>
				</port>
			</input>
			<output>
				<port id="2" precision="FP16">
					<dim>1</dim>
					<dim>48</dim>
					<dim>52</dim>
					<dim>52</dim>
				</port>
			</output>
		</layer>
		<layer id="100" name="BatchNormalization_61/mean/Fused_Mul_3674436746_const" type="Const" version="opset1">
			<data element_type="f16" offset="112740" shape="192,32,1,1" size="12288"/>
			<output>
				<port id="1" precision="FP16">
					<dim>192</dim>
					<dim>32</dim>
					<dim>1</dim>
					<dim>1</dim>
				</port>
			</output>
		</layer>
		<layer id="101" name="Conv_60" type="Convolution" version="opset1">
			<data dilations="1,1" output_padding="0,0" pads_begin="0,0" pads_end="0,0" strides="1,1"/>
			<input>
				<port id="0">
					<dim>1</dim>
					<dim>32</dim>
					<dim>52</dim>
					<dim>52</dim>
				</port>
				<port id="1">
					<dim>192</dim>
					<dim>32</dim>
					<dim>1</dim>
					<dim>1</dim>
				</port>
			</input>
			<output>
				<port id="2" precision="FP16">
					<dim>1</dim>
					<dim>192</dim>
					<dim>52</dim>
					<dim>52</dim>
				</port>
			</output>
		</layer>
		<layer id="102" name="data_add_3414434149/copy_const" type="Const" version="opset1">
			<data element_type="f16" offset="125028" shape="1,192,1,1" size="384"/>
			<output>
				<port id="1" precision="FP16">
					<dim>1</dim>
					<dim>192</dim>
					<dim>1</dim>
					<dim>1</dim>
				</port>
			</output>
		</layer>
		<layer id="103" name="BatchNormalization_61/variance/Fused_Add_" type="Add" version="opset1">
			<input>
				<port id="0">
					<dim>1</dim>
					<dim>192</dim>
					<dim>52</dim>
					<dim>52</dim>
				</port>
				<port id="1">
					<dim>1</dim>
					<dim>192</dim>
					<dim>1</dim>
					<dim>1</dim>
				</port>
			</input>
			<output>
				<port id="2" precision="FP16">
					<dim>1</dim>
					<dim>192</dim>
					<dim>52</dim>
					<dim>52</dim>
				</port>
			</output>
		</layer>
		<layer id="104" name="Clip_62" type="Clamp" version="opset1">
			<data max="6.0" min="0.0"/>
			<input>
				<port id="0">
					<dim>1</dim>
					<dim>192</dim>
					<dim>52</dim>
					<dim>52</dim>
				</port>
			</input>
			<output>
				<port id="1" precision="FP16">
					<dim>1</dim>
					<dim>192</dim>
					<dim>52</dim>
					<dim>52</dim>
				</port>
			</output>
		</layer>
		<layer id="105" name="7013170134_const" type="Const" version="opset1">
			<data element_type="f16" offset="125412" shape="192,1,1,3,3" size="3456"/>
			<output>
				<port id="1" precision="FP16">
					<dim>192</dim>
					<dim>1</dim>
					<dim>1</dim>
					<dim>3</dim>
					<dim>3</dim>
				</port>
			</output>
		</layer>
		<layer id="106" name="Conv_63" type="GroupConvolution" version="opset1">
			<data dilations="1,1" output_padding="0,0" pads_begin="1,1" pads_end="1,1" strides="2,2"/>
			<input>
				<port id="0">
					<dim>1</dim>
					<dim>192</dim>
					<dim>52</dim>
					<dim>52</dim>
				</port>
				<port id="1">
					<dim>192</dim>
					<dim>1</dim>
					<dim>1</dim>
					<dim>3</dim>
					<dim>3</dim>
				</port>
			</input>
			<output>
				<port id="2" precision="FP16">
					<dim>1</dim>
					<dim>192</dim>
					<dim>26</dim>
					<dim>26</dim>
				</port>
			</output>
		</layer>
		<layer id="107" name="data_add_3415234157/copy_const" type="Const" version="opset1">
			<data element_type="f16" offset="128868" shape="1,192,1,1" size="384"/>
			<output>
				<port id="1" precision="FP16">
					<dim>1</dim>
					<dim>192</dim>
					<dim>1</dim>
					<dim>1</dim>
				</port>
			</output>
		</layer>
		<layer id="108" name="BatchNormalization_64/variance/Fused_Add_" type="Add" version="opset1">
			<input>
				<port id="0">
					<dim>1</dim>
					<dim>192</dim>
					<dim>26</dim>
					<dim>26</dim>
				</port>
				<port id="1">
					<dim>1</dim>
					<dim>192</dim>
					<dim>1</dim>
					<dim>1</dim>
				</port>
			</input>
			<output>
				<port id="2" precision="FP16">
					<dim>1</dim>
					<dim>192</dim>
					<dim>26</dim>
					<dim>26</dim>
				</port>
			</output>
		</layer>
		<layer id="109" name="Clip_65" type="Clamp" version="opset1">
			<data max="6.0" min="0.0"/>
			<input>
				<port id="0">
					<dim>1</dim>
					<dim>192</dim>
					<dim>26</dim>
					<dim>26</dim>
				</port>
			</input>
			<output>
				<port id="1" precision="FP16">
					<dim>1</dim>
					<dim>192</dim>
					<dim>26</dim>
					<dim>26</dim>
				</port>
			</output>
		</layer>
		<layer id="110" name="BatchNormalization_67/mean/Fused_Mul_3675236754_const" type="Const" version="opset1">
			<data element_type="f16" offset="129252" shape="64,192,1,1" size="24576"/>
			<output>
				<port id="1" precision="FP16">
					<dim>64</dim>
					<dim>192</dim>
					<dim>1</dim>
					<dim>1</dim>
				</port>
			</output>
		</layer>
		<layer id="111" name="Conv_66" type="Convolution" version="opset1">
			<data dilations="1,1" output_padding="0,0" pads_begin="0,0" pads_end="0,0" strides="1,1"/>
			<input>
				<port id="0">
					<dim>1</dim>
					<dim>192</dim>
					<dim>26</dim>
					<dim>26</dim>
				</port>
				<port id="1">
					<dim>64</dim>
					<dim>192</dim>
					<dim>1</dim>
					<dim>1</dim>
				</port>
			</input>
			<output>
				<port id="2" precision="FP16">
					<dim>1</dim>
					<dim>64</dim>
					<dim>26</dim>
					<dim>26</dim>
				</port>
			</output>
		</layer>
		<layer id="112" name="data_add_3416034165/copy_const" type="Const" version="opset1">
			<data element_type="f16" offset="153828" shape="1,64,1,1" size="128"/>
			<output>
				<port id="1" precision="FP16">
					<dim>1</dim>
					<dim>64</dim>
					<dim>1</dim>
					<dim>1</dim>
				</port>
			</output>
		</layer>
		<layer id="113" name="BatchNormalization_67/variance/Fused_Add_" type="Add" version="opset1">
			<input>
				<port id="0">
					<dim>1</dim>
					<dim>64</dim>
					<dim>26</dim>
					<dim>26</dim>
				</port>
				<port id="1">
					<dim>1</dim>
					<dim>64</dim>
					<dim>1</dim>
					<dim>1</dim>
				</port>
			</input>
			<output>
				<port id="2" precision="FP16">
					<dim>1</dim>
					<dim>64</dim>
					<dim>26</dim>
					<dim>26</dim>
				</port>
			</output>
		</layer>
		<layer id="114" name="BatchNormalization_69/mean/Fused_Mul_3675636758_const" type="Const" version="opset1">
			<data element_type="f16" offset="153956" shape="384,64,1,1" size="49152"/>
			<output>
				<port id="1" precision="FP16">
					<dim>384</dim>
					<dim>64</dim>
					<dim>1</dim>
					<dim>1</dim>
				</port>
			</output>
		</layer>
		<layer id="115" name="Conv_68" type="Convolution" version="opset1">
			<data dilations="1,1" output_padding="0,0" pads_begin="0,0" pads_end="0,0" strides="1,1"/>
			<input>
				<port id="0">
					<dim>1</dim>
					<dim>64</dim>
					<dim>26</dim>
					<dim>26</dim>
				</port>
				<port id="1">
					<dim>384</dim>
					<dim>64</dim>
					<dim>1</dim>
					<dim>1</dim>
				</port>
			</input>
			<output>
				<port id="2" precision="FP16">
					<dim>1</dim>
					<dim>384</dim>
					<dim>26</dim>
					<dim>26</dim>
				</port>
			</output>
		</layer>
		<layer id="116" name="data_add_3416834173/copy_const" type="Const" version="opset1">
			<data element_type="f16" offset="203108" shape="1,384,1,1" size="768"/>
			<output>
				<port id="1" precision="FP16">
					<dim>1</dim>
					<dim>384</dim>
					<dim>1</dim>
					<dim>1</dim>
				</port>
			</output>
		</layer>
		<layer id="117" name="BatchNormalization_69/variance/Fused_Add_" type="Add" version="opset1">
			<input>
				<port id="0">
					<dim>1</dim>
					<dim>384</dim>
					<dim>26</dim>
					<dim>26</dim>
				</port>
				<port id="1">
					<dim>1</dim>
					<dim>384</dim>
					<dim>1</dim>
					<dim>1</dim>
				</port>
			</input>
			<output>
				<port id="2" precision="FP16">
					<dim>1</dim>
					<dim>384</dim>
					<dim>26</dim>
					<dim>26</dim>
				</port>
			</output>
		</layer>
		<layer id="118" name="Clip_70" type="Clamp" version="opset1">
			<data max="6.0" min="0.0"/>
			<input>
				<port id="0">
					<dim>1</dim>
					<dim>384</dim>
					<dim>26</dim>
					<dim>26</dim>
				</port>
			</input>
			<output>
				<port id="1" precision="FP16">
					<dim>1</dim>
					<dim>384</dim>
					<dim>26</dim>
					<dim>26</dim>
				</port>
			</output>
		</layer>
		<layer id="119" name="7013570138_const" type="Const" version="opset1">
			<data element_type="f16" offset="203876" shape="384,1,1,3,3" size="6912"/>
			<output>
				<port id="1" precision="FP16">
					<dim>384</dim>
					<dim>1</dim>
					<dim>1</dim>
					<dim>3</dim>
					<dim>3</dim>
				</port>
			</output>
		</layer>
		<layer id="120" name="Conv_71" type="GroupConvolution" version="opset1">
			<data dilations="1,1" output_padding="0,0" pads_begin="1,1" pads_end="1,1" strides="1,1"/>
			<input>
				<port id="0">
					<dim>1</dim>
					<dim>384</dim>
					<dim>26</dim>
					<dim>26</dim>
				</port>
				<port id="1">
					<dim>384</dim>
					<dim>1</dim>
					<dim>1</dim>
					<dim>3</dim>
					<dim>3</dim>
				</port>
			</input>
			<output>
				<port id="2" precision="FP16">
					<dim>1</dim>
					<dim>384</dim>
					<dim>26</dim>
					<dim>26</dim>
				</port>
			</output>
		</layer>
		<layer id="121" name="data_add_3417634181/copy_const" type="Const" version="opset1">
			<data element_type="f16" offset="210788" shape="1,384,1,1" size="768"/>
			<output>
				<port id="1" precision="FP16">
					<dim>1</dim>
					<dim>384</dim>
					<dim>1</dim>
					<dim>1</dim>
				</port>
			</output>
		</layer>
		<layer id="122" name="BatchNormalization_72/variance/Fused_Add_" type="Add" version="opset1">
			<input>
				<port id="0">
					<dim>1</dim>
					<dim>384</dim>
					<dim>26</dim>
					<dim>26</dim>
				</port>
				<port id="1">
					<dim>1</dim>
					<dim>384</dim>
					<dim>1</dim>
					<dim>1</dim>
				</port>
			</input>
			<output>
				<port id="2" precision="FP16">
					<dim>1</dim>
					<dim>384</dim>
					<dim>26</dim>
					<dim>26</dim>
				</port>
			</output>
		</layer>
		<layer id="123" name="Clip_73" type="Clamp" version="opset1">
			<data max="6.0" min="0.0"/>
			<input>
				<port id="0">
					<dim>1</dim>
					<dim>384</dim>
					<dim>26</dim>
					<dim>26</dim>
				</port>
			</input>
			<output>
				<port id="1" precision="FP16">
					<dim>1</dim>
					<dim>384</dim>
					<dim>26</dim>
					<dim>26</dim>
				</port>
			</output>
		</layer>
		<layer id="124" name="BatchNormalization_75/mean/Fused_Mul_3676436766_const" type="Const" version="opset1">
			<data element_type="f16" offset="211556" shape="64,384,1,1" size="49152"/>
			<output>
				<port id="1" precision="FP16">
					<dim>64</dim>
					<dim>384</dim>
					<dim>1</dim>
					<dim>1</dim>
				</port>
			</output>
		</layer>
		<layer id="125" name="Conv_74" type="Convolution" version="opset1">
			<data dilations="1,1" output_padding="0,0" pads_begin="0,0" pads_end="0,0" strides="1,1"/>
			<input>
				<port id="0">
					<dim>1</dim>
					<dim>384</dim>
					<dim>26</dim>
					<dim>26</dim>
				</port>
				<port id="1">
					<dim>64</dim>
					<dim>384</dim>
					<dim>1</dim>
					<dim>1</dim>
				</port>
			</input>
			<output>
				<port id="2" precision="FP16">
					<dim>1</dim>
					<dim>64</dim>
					<dim>26</dim>
					<dim>26</dim>
				</port>
			</output>
		</layer>
		<layer id="126" name="data_add_3418434189/copy_const" type="Const" version="opset1">
			<data element_type="f16" offset="260708" shape="1,64,1,1" size="128"/>
			<output>
				<port id="1" precision="FP16">
					<dim>1</dim>
					<dim>64</dim>
					<dim>1</dim>
					<dim>1</dim>
				</port>
			</output>
		</layer>
		<layer id="127" name="BatchNormalization_75/variance/Fused_Add_" type="Add" version="opset1">
			<input>
				<port id="0">
					<dim>1</dim>
					<dim>64</dim>
					<dim>26</dim>
					<dim>26</dim>
				</port>
				<port id="1">
					<dim>1</dim>
					<dim>64</dim>
					<dim>1</dim>
					<dim>1</dim>
				</port>
			</input>
			<output>
				<port id="2" precision="FP16">
					<dim>1</dim>
					<dim>64</dim>
					<dim>26</dim>
					<dim>26</dim>
				</port>
			</output>
		</layer>
		<layer id="128" name="Add_76" type="Add" version="opset1">
			<input>
				<port id="0">
					<dim>1</dim>
					<dim>64</dim>
					<dim>26</dim>
					<dim>26</dim>
				</port>
				<port id="1">
					<dim>1</dim>
					<dim>64</dim>
					<dim>26</dim>
					<dim>26</dim>
				</port>
			</input>
			<output>
				<port id="2" precision="FP16">
					<dim>1</dim>
					<dim>64</dim>
					<dim>26</dim>
					<dim>26</dim>
				</port>
			</output>
		</layer>
		<layer id="129" name="BatchNormalization_78/mean/Fused_Mul_3676836770_const" type="Const" version="opset1">
			<data element_type="f16" offset="260836" shape="384,64,1,1" size="49152"/>
			<output>
				<port id="1" precision="FP16">
					<dim>384</dim>
					<dim>64</dim>
					<dim>1</dim>
					<dim>1</dim>
				</port>
			</output>
		</layer>
		<layer id="130" name="Conv_77" type="Convolution" version="opset1">
			<data dilations="1,1" output_padding="0,0" pads_begin="0,0" pads_end="0,0" strides="1,1"/>
			<input>
				<port id="0">
					<dim>1</dim>
					<dim>64</dim>
					<dim>26</dim>
					<dim>26</dim>
				</port>
				<port id="1">
					<dim>384</dim>
					<dim>64</dim>
					<dim>1</dim>
					<dim>1</dim>
				</port>
			</input>
			<output>
				<port id="2" precision="FP16">
					<dim>1</dim>
					<dim>384</dim>
					<dim>26</dim>
					<dim>26</dim>
				</port>
			</output>
		</layer>
		<layer id="131" name="data_add_3419234197/copy_const" type="Const" version="opset1">
			<data element_type="f16" offset="309988" shape="1,384,1,1" size="768"/>
			<output>
				<port id="1" precision="FP16">
					<dim>1</dim>
					<dim>384</dim>
					<dim>1</dim>
					<dim>1</dim>
				</port>
			</output>
		</layer>
		<layer id="132" name="BatchNormalization_78/variance/Fused_Add_" type="Add" version="opset1">
			<input>
				<port id="0">
					<dim>1</dim>
					<dim>384</dim>
					<dim>26</dim>
					<dim>26</dim>
				</port>
				<port id="1">
					<dim>1</dim>
					<dim>384</dim>
					<dim>1</dim>
					<dim>1</dim>
				</port>
			</input>
			<output>
				<port id="2" precision="FP16">
					<dim>1</dim>
					<dim>384</dim>
					<dim>26</dim>
					<dim>26</dim>
				</port>
			</output>
		</layer>
		<layer id="133" name="Clip_79" type="Clamp" version="opset1">
			<data max="6.0" min="0.0"/>
			<input>
				<port id="0">
					<dim>1</dim>
					<dim>384</dim>
					<dim>26</dim>
					<dim>26</dim>
				</port>
			</input>
			<output>
				<port id="1" precision="FP16">
					<dim>1</dim>
					<dim>384</dim>
					<dim>26</dim>
					<dim>26</dim>
				</port>
			</output>
		</layer>
		<layer id="134" name="7012770130_const" type="Const" version="opset1">
			<data element_type="f16" offset="310756" shape="384,1,1,3,3" size="6912"/>
			<output>
				<port id="1" precision="FP16">
					<dim>384</dim>
					<dim>1</dim>
					<dim>1</dim>
					<dim>3</dim>
					<dim>3</dim>
				</port>
			</output>
		</layer>
		<layer id="135" name="Conv_80" type="GroupConvolution" version="opset1">
			<data dilations="1,1" output_padding="0,0" pads_begin="1,1" pads_end="1,1" strides="1,1"/>
			<input>
				<port id="0">
					<dim>1</dim>
					<dim>384</dim>
					<dim>26</dim>
					<dim>26</dim>
				</port>
				<port id="1">
					<dim>384</dim>
					<dim>1</dim>
					<dim>1</dim>
					<dim>3</dim>
					<dim>3</dim>
				</port>
			</input>
			<output>
				<port id="2" precision="FP16">
					<dim>1</dim>
					<dim>384</dim>
					<dim>26</dim>
					<dim>26</dim>
				</port>
			</output>
		</layer>
		<layer id="136" name="data_add_3420034205/copy_const" type="Const" version="opset1">
			<data element_type="f16" offset="317668" shape="1,384,1,1" size="768"/>
			<output>
				<port id="1" precision="FP16">
					<dim>1</dim>
					<dim>384</dim>
					<dim>1</dim>
					<dim>1</dim>
				</port>
			</output>
		</layer>
		<layer id="137" name="BatchNormalization_81/variance/Fused_Add_" type="Add" version="opset1">
			<input>
				<port id="0">
					<dim>1</dim>
					<dim>384</dim>
					<dim>26</dim>
					<dim>26</dim>
				</port>
				<port id="1">
					<dim>1</dim>
					<dim>384</dim>
					<dim>1</dim>
					<dim>1</dim>
				</port>
			</input>
			<output>
				<port id="2" precision="FP16">
					<dim>1</dim>
					<dim>384</dim>
					<dim>26</dim>
					<dim>26</dim>
				</port>
			</output>
		</layer>
		<layer id="138" name="Clip_82" type="Clamp" version="opset1">
			<data max="6.0" min="0.0"/>
			<input>
				<port id="0">
					<dim>1</dim>
					<dim>384</dim>
					<dim>26</dim>
					<dim>26</dim>
				</port>
			</input>
			<output>
				<port id="1" precision="FP16">
					<dim>1</dim>
					<dim>384</dim>
					<dim>26</dim>
					<dim>26</dim>
				</port>
			</output>
		</layer>
		<layer id="139" name="BatchNormalization_84/mean/Fused_Mul_3677636778_const" type="Const" version="opset1">
			<data element_type="f16" offset="318436" shape="64,384,1,1" size="49152"/>
			<output>
				<port id="1" precision="FP16">
					<dim>64</dim>
					<dim>384</dim>
					<dim>1</dim>
					<dim>1</dim>
				</port>
			</output>
		</layer>
		<layer id="140" name="Conv_83" type="Convolution" version="opset1">
			<data dilations="1,1" output_padding="0,0" pads_begin="0,0" pads_end="0,0" strides="1,1"/>
			<input>
				<port id="0">
					<dim>1</dim>
					<dim>384</dim>
					<dim>26</dim>
					<dim>26</dim>
				</port>
				<port id="1">
					<dim>64</dim>
					<dim>384</dim>
					<dim>1</dim>
					<dim>1</dim>
				</port>
			</input>
			<output>
				<port id="2" precision="FP16">
					<dim>1</dim>
					<dim>64</dim>
					<dim>26</dim>
					<dim>26</dim>
				</port>
			</output>
		</layer>
		<layer id="141" name="data_add_3420834213/copy_const" type="Const" version="opset1">
			<data element_type="f16" offset="367588" shape="1,64,1,1" size="128"/>
			<output>
				<port id="1" precision="FP16">
					<dim>1</dim>
					<dim>64</dim>
					<dim>1</dim>
					<dim>1</dim>
				</port>
			</output>
		</layer>
		<layer id="142" name="BatchNormalization_84/variance/Fused_Add_" type="Add" version="opset1">
			<input>
				<port id="0">
					<dim>1</dim>
					<dim>64</dim>
					<dim>26</dim>
					<dim>26</dim>
				</port>
				<port id="1">
					<dim>1</dim>
					<dim>64</dim>
					<dim>1</dim>
					<dim>1</dim>
				</port>
			</input>
			<output>
				<port id="2" precision="FP16">
					<dim>1</dim>
					<dim>64</dim>
					<dim>26</dim>
					<dim>26</dim>
				</port>
			</output>
		</layer>
		<layer id="143" name="Add_85" type="Add" version="opset1">
			<input>
				<port id="0">
					<dim>1</dim>
					<dim>64</dim>
					<dim>26</dim>
					<dim>26</dim>
				</port>
				<port id="1">
					<dim>1</dim>
					<dim>64</dim>
					<dim>26</dim>
					<dim>26</dim>
				</port>
			</input>
			<output>
				<port id="2" precision="FP16">
					<dim>1</dim>
					<dim>64</dim>
					<dim>26</dim>
					<dim>26</dim>
				</port>
			</output>
		</layer>
		<layer id="144" name="BatchNormalization_87/mean/Fused_Mul_3678036782_const" type="Const" version="opset1">
			<data element_type="f16" offset="367716" shape="384,64,1,1" size="49152"/>
			<output>
				<port id="1" precision="FP16">
					<dim>384</dim>
					<dim>64</dim>
					<dim>1</dim>
					<dim>1</dim>
				</port>
			</output>
		</layer>
		<layer id="145" name="Conv_86" type="Convolution" version="opset1">
			<data dilations="1,1" output_padding="0,0" pads_begin="0,0" pads_end="0,0" strides="1,1"/>
			<input>
				<port id="0">
					<dim>1</dim>
					<dim>64</dim>
					<dim>26</dim>
					<dim>26</dim>
				</port>
				<port id="1">
					<dim>384</dim>
					<dim>64</dim>
					<dim>1</dim>
					<dim>1</dim>
				</port>
			</input>
			<output>
				<port id="2" precision="FP16">
					<dim>1</dim>
					<dim>384</dim>
					<dim>26</dim>
					<dim>26</dim>
				</port>
			</output>
		</layer>
		<layer id="146" name="data_add_3421634221/copy_const" type="Const" version="opset1">
			<data element_type="f16" offset="416868" shape="1,384,1,1" size="768"/>
			<output>
				<port id="1" precision="FP16">
					<dim>1</dim>
					<dim>384</dim>
					<dim>1</dim>
					<dim>1</dim>
				</port>
			</output>
		</layer>
		<layer id="147" name="BatchNormalization_87/variance/Fused_Add_" type="Add" version="opset1">
			<input>
				<port id="0">
					<dim>1</dim>
					<dim>384</dim>
					<dim>26</dim>
					<dim>26</dim>
				</port>
				<port id="1">
					<dim>1</dim>
					<dim>384</dim>
					<dim>1</dim>
					<dim>1</dim>
				</port>
			</input>
			<output>
				<port id="2" precision="FP16">
					<dim>1</dim>
					<dim>384</dim>
					<dim>26</dim>
					<dim>26</dim>
				</port>
			</output>
		</layer>
		<layer id="148" name="Clip_88" type="Clamp" version="opset1">
			<data max="6.0" min="0.0"/>
			<input>
				<port id="0">
					<dim>1</dim>
					<dim>384</dim>
					<dim>26</dim>
					<dim>26</dim>
				</port>
			</input>
			<output>
				<port id="1" precision="FP16">
					<dim>1</dim>
					<dim>384</dim>
					<dim>26</dim>
					<dim>26</dim>
				</port>
			</output>
		</layer>
		<layer id="149" name="7016370166_const" type="Const" version="opset1">
			<data element_type="f16" offset="417636" shape="384,1,1,3,3" size="6912"/>
			<output>
				<port id="1" precision="FP16">
					<dim>384</dim>
					<dim>1</dim>
					<dim>1</dim>
					<dim>3</dim>
					<dim>3</dim>
				</port>
			</output>
		</layer>
		<layer id="150" name="Conv_89" type="GroupConvolution" version="opset1">
			<data dilations="1,1" output_padding="0,0" pads_begin="1,1" pads_end="1,1" strides="1,1"/>
			<input>
				<port id="0">
					<dim>1</dim>
					<dim>384</dim>
					<dim>26</dim>
					<dim>26</dim>
				</port>
				<port id="1">
					<dim>384</dim>
					<dim>1</dim>
					<dim>1</dim>
					<dim>3</dim>
					<dim>3</dim>
				</port>
			</input>
			<output>
				<port id="2" precision="FP16">
					<dim>1</dim>
					<dim>384</dim>
					<dim>26</dim>
					<dim>26</dim>
				</port>
			</output>
		</layer>
		<layer id="151" name="data_add_3422434229/copy_const" type="Const" version="opset1">
			<data element_type="f16" offset="424548" shape="1,384,1,1" size="768"/>
			<output>
				<port id="1" precision="FP16">
					<dim>1</dim>
					<dim>384</dim>
					<dim>1</dim>
					<dim>1</dim>
				</port>
			</output>
		</layer>
		<layer id="152" name="BatchNormalization_90/variance/Fused_Add_" type="Add" version="opset1">
			<input>
				<port id="0">
					<dim>1</dim>
					<dim>384</dim>
					<dim>26</dim>
					<dim>26</dim>
				</port>
				<port id="1">
					<dim>1</dim>
					<dim>384</dim>
					<dim>1</dim>
					<dim>1</dim>
				</port>
			</input>
			<output>
				<port id="2" precision="FP16">
					<dim>1</dim>
					<dim>384</dim>
					<dim>26</dim>
					<dim>26</dim>
				</port>
			</output>
		</layer>
		<layer id="153" name="Clip_91" type="Clamp" version="opset1">
			<data max="6.0" min="0.0"/>
			<input>
				<port id="0">
					<dim>1</dim>
					<dim>384</dim>
					<dim>26</dim>
					<dim>26</dim>
				</port>
			</input>
			<output>
				<port id="1" precision="FP16">
					<dim>1</dim>
					<dim>384</dim>
					<dim>26</dim>
					<dim>26</dim>
				</port>
			</output>
		</layer>
		<layer id="154" name="BatchNormalization_93/mean/Fused_Mul_3678836790_const" type="Const" version="opset1">
			<data element_type="f16" offset="425316" shape="64,384,1,1" size="49152"/>
			<output>
				<port id="1" precision="FP16">
					<dim>64</dim>
					<dim>384</dim>
					<dim>1</dim>
					<dim>1</dim>
				</port>
			</output>
		</layer>
		<layer id="155" name="Conv_92" type="Convolution" version="opset1">
			<data dilations="1,1" output_padding="0,0" pads_begin="0,0" pads_end="0,0" strides="1,1"/>
			<input>
				<port id="0">
					<dim>1</dim>
					<dim>384</dim>
					<dim>26</dim>
					<dim>26</dim>
				</port>
				<port id="1">
					<dim>64</dim>
					<dim>384</dim>
					<dim>1</dim>
					<dim>1</dim>
				</port>
			</input>
			<output>
				<port id="2" precision="FP16">
					<dim>1</dim>
					<dim>64</dim>
					<dim>26</dim>
					<dim>26</dim>
				</port>
			</output>
		</layer>
		<layer id="156" name="data_add_3423234237/copy_const" type="Const" version="opset1">
			<data element_type="f16" offset="474468" shape="1,64,1,1" size="128"/>
			<output>
				<port id="1" precision="FP16">
					<dim>1</dim>
					<dim>64</dim>
					<dim>1</dim>
					<dim>1</dim>
				</port>
			</output>
		</layer>
		<layer id="157" name="BatchNormalization_93/variance/Fused_Add_" type="Add" version="opset1">
			<input>
				<port id="0">
					<dim>1</dim>
					<dim>64</dim>
					<dim>26</dim>
					<dim>26</dim>
				</port>
				<port id="1">
					<dim>1</dim>
					<dim>64</dim>
					<dim>1</dim>
					<dim>1</dim>
				</port>
			</input>
			<output>
				<port id="2" precision="FP16">
					<dim>1</dim>
					<dim>64</dim>
					<dim>26</dim>
					<dim>26</dim>
				</port>
			</output>
		</layer>
		<layer id="158" name="Add_94" type="Add" version="opset1">
			<input>
				<port id="0">
					<dim>1</dim>
					<dim>64</dim>
					<dim>26</dim>
					<dim>26</dim>
				</port>
				<port id="1">
					<dim>1</dim>
					<dim>64</dim>
					<dim>26</dim>
					<dim>26</dim>
				</port>
			</input>
			<output>
				<port id="2" precision="FP16">
					<dim>1</dim>
					<dim>64</dim>
					<dim>26</dim>
					<dim>26</dim>
				</port>
			</output>
		</layer>
		<layer id="159" name="BatchNormalization_96/mean/Fused_Mul_3679236794_const" type="Const" version="opset1">
			<data element_type="f16" offset="474596" shape="384,64,1,1" size="49152"/>
			<output>
				<port id="1" precision="FP16">
					<dim>384</dim>
					<dim>64</dim>
					<dim>1</dim>
					<dim>1</dim>
				</port>
			</output>
		</layer>
		<layer id="160" name="Conv_95" type="Convolution" version="opset1">
			<data dilations="1,1" output_padding="0,0" pads_begin="0,0" pads_end="0,0" strides="1,1"/>
			<input>
				<port id="0">
					<dim>1</dim>
					<dim>64</dim>
					<dim>26</dim>
					<dim>26</dim>
				</port>
				<port id="1">
					<dim>384</dim>
					<dim>64</dim>
					<dim>1</dim>
					<dim>1</dim>
				</port>
			</input>
			<output>
				<port id="2" precision="FP16">
					<dim>1</dim>
					<dim>384</dim>
					<dim>26</dim>
					<dim>26</dim>
				</port>
			</output>
		</layer>
		<layer id="161" name="data_add_3424034245/copy_const" type="Const" version="opset1">
			<data element_type="f16" offset="523748" shape="1,384,1,1" size="768"/>
			<output>
				<port id="1" precision="FP16">
					<dim>1</dim>
					<dim>384</dim>
					<dim>1</dim>
					<dim>1</dim>
				</port>
			</output>
		</layer>
		<layer id="162" name="BatchNormalization_96/variance/Fused_Add_" type="Add" version="opset1">
			<input>
				<port id="0">
					<dim>1</dim>
					<dim>384</dim>
					<dim>26</dim>
					<dim>26</dim>
				</port>
				<port id="1">
					<dim>1</dim>
					<dim>384</dim>
					<dim>1</dim>
					<dim>1</dim>
				</port>
			</input>
			<output>
				<port id="2" precision="FP16">
					<dim>1</dim>
					<dim>384</dim>
					<dim>26</dim>
					<dim>26</dim>
				</port>
			</output>
		</layer>
		<layer id="163" name="Clip_97" type="Clamp" version="opset1">
			<data max="6.0" min="0.0"/>
			<input>
				<port id="0">
					<dim>1</dim>
					<dim>384</dim>
					<dim>26</dim>
					<dim>26</dim>
				</port>
			</input>
			<output>
				<port id="1" precision="FP16">
					<dim>1</dim>
					<dim>384</dim>
					<dim>26</dim>
					<dim>26</dim>
				</port>
			</output>
		</layer>
		<layer id="164" name="7017170174_const" type="Const" version="opset1">
			<data element_type="f16" offset="524516" shape="384,1,1,3,3" size="6912"/>
			<output>
				<port id="1" precision="FP16">
					<dim>384</dim>
					<dim>1</dim>
					<dim>1</dim>
					<dim>3</dim>
					<dim>3</dim>
				</port>
			</output>
		</layer>
		<layer id="165" name="Conv_98" type="GroupConvolution" version="opset1">
			<data dilations="1,1" output_padding="0,0" pads_begin="1,1" pads_end="1,1" strides="1,1"/>
			<input>
				<port id="0">
					<dim>1</dim>
					<dim>384</dim>
					<dim>26</dim>
					<dim>26</dim>
				</port>
				<port id="1">
					<dim>384</dim>
					<dim>1</dim>
					<dim>1</dim>
					<dim>3</dim>
					<dim>3</dim>
				</port>
			</input>
			<output>
				<port id="2" precision="FP16">
					<dim>1</dim>
					<dim>384</dim>
					<dim>26</dim>
					<dim>26</dim>
				</port>
			</output>
		</layer>
		<layer id="166" name="data_add_3424834253/copy_const" type="Const" version="opset1">
			<data element_type="f16" offset="531428" shape="1,384,1,1" size="768"/>
			<output>
				<port id="1" precision="FP16">
					<dim>1</dim>
					<dim>384</dim>
					<dim>1</dim>
					<dim>1</dim>
				</port>
			</output>
		</layer>
		<layer id="167" name="BatchNormalization_99/variance/Fused_Add_" type="Add" version="opset1">
			<input>
				<port id="0">
					<dim>1</dim>
					<dim>384</dim>
					<dim>26</dim>
					<dim>26</dim>
				</port>
				<port id="1">
					<dim>1</dim>
					<dim>384</dim>
					<dim>1</dim>
					<dim>1</dim>
				</port>
			</input>
			<output>
				<port id="2" precision="FP16">
					<dim>1</dim>
					<dim>384</dim>
					<dim>26</dim>
					<dim>26</dim>
				</port>
			</output>
		</layer>
		<layer id="168" name="Clip_100" type="Clamp" version="opset1">
			<data max="6.0" min="0.0"/>
			<input>
				<port id="0">
					<dim>1</dim>
					<dim>384</dim>
					<dim>26</dim>
					<dim>26</dim>
				</port>
			</input>
			<output>
				<port id="1" precision="FP16">
					<dim>1</dim>
					<dim>384</dim>
					<dim>26</dim>
					<dim>26</dim>
				</port>
			</output>
		</layer>
		<layer id="169" name="BatchNormalization_102/mean/Fused_Mul_3680036802_const" type="Const" version="opset1">
			<data element_type="f16" offset="532196" shape="96,384,1,1" size="73728"/>
			<output>
				<port id="1" precision="FP16">
					<dim>96</dim>
					<dim>384</dim>
					<dim>1</dim>
					<dim>1</dim>
				</port>
			</output>
		</layer>
		<layer id="170" name="Conv_101" type="Convolution" version="opset1">
			<data dilations="1,1" output_padding="0,0" pads_begin="0,0" pads_end="0,0" strides="1,1"/>
			<input>
				<port id="0">
					<dim>1</dim>
					<dim>384</dim>
					<dim>26</dim>
					<dim>26</dim>
				</port>
				<port id="1">
					<dim>96</dim>
					<dim>384</dim>
					<dim>1</dim>
					<dim>1</dim>
				</port>
			</input>
			<output>
				<port id="2" precision="FP16">
					<dim>1</dim>
					<dim>96</dim>
					<dim>26</dim>
					<dim>26</dim>
				</port>
			</output>
		</layer>
		<layer id="171" name="data_add_3425634261/copy_const" type="Const" version="opset1">
			<data element_type="f16" offset="605924" shape="1,96,1,1" size="192"/>
			<output>
				<port id="1" precision="FP16">
					<dim>1</dim>
					<dim>96</dim>
					<dim>1</dim>
					<dim>1</dim>
				</port>
			</output>
		</layer>
		<layer id="172" name="BatchNormalization_102/variance/Fused_Add_" type="Add" version="opset1">
			<input>
				<port id="0">
					<dim>1</dim>
					<dim>96</dim>
					<dim>26</dim>
					<dim>26</dim>
				</port>
				<port id="1">
					<dim>1</dim>
					<dim>96</dim>
					<dim>1</dim>
					<dim>1</dim>
				</port>
			</input>
			<output>
				<port id="2" precision="FP16">
					<dim>1</dim>
					<dim>96</dim>
					<dim>26</dim>
					<dim>26</dim>
				</port>
			</output>
		</layer>
		<layer id="173" name="BatchNormalization_104/mean/Fused_Mul_3680436806_const" type="Const" version="opset1">
			<data element_type="f16" offset="606116" shape="576,96,1,1" size="110592"/>
			<output>
				<port id="1" precision="FP16">
					<dim>576</dim>
					<dim>96</dim>
					<dim>1</dim>
					<dim>1</dim>
				</port>
			</output>
		</layer>
		<layer id="174" name="Conv_103" type="Convolution" version="opset1">
			<data dilations="1,1" output_padding="0,0" pads_begin="0,0" pads_end="0,0" strides="1,1"/>
			<input>
				<port id="0">
					<dim>1</dim>
					<dim>96</dim>
					<dim>26</dim>
					<dim>26</dim>
				</port>
				<port id="1">
					<dim>576</dim>
					<dim>96</dim>
					<dim>1</dim>
					<dim>1</dim>
				</port>
			</input>
			<output>
				<port id="2" precision="FP16">
					<dim>1</dim>
					<dim>576</dim>
					<dim>26</dim>
					<dim>26</dim>
				</port>
			</output>
		</layer>
		<layer id="175" name="data_add_3426434269/copy_const" type="Const" version="opset1">
			<data element_type="f16" offset="716708" shape="1,576,1,1" size="1152"/>
			<output>
				<port id="1" precision="FP16">
					<dim>1</dim>
					<dim>576</dim>
					<dim>1</dim>
					<dim>1</dim>
				</port>
			</output>
		</layer>
		<layer id="176" name="BatchNormalization_104/variance/Fused_Add_" type="Add" version="opset1">
			<input>
				<port id="0">
					<dim>1</dim>
					<dim>576</dim>
					<dim>26</dim>
					<dim>26</dim>
				</port>
				<port id="1">
					<dim>1</dim>
					<dim>576</dim>
					<dim>1</dim>
					<dim>1</dim>
				</port>
			</input>
			<output>
				<port id="2" precision="FP16">
					<dim>1</dim>
					<dim>576</dim>
					<dim>26</dim>
					<dim>26</dim>
				</port>
			</output>
		</layer>
		<layer id="177" name="Clip_105" type="Clamp" version="opset1">
			<data max="6.0" min="0.0"/>
			<input>
				<port id="0">
					<dim>1</dim>
					<dim>576</dim>
					<dim>26</dim>
					<dim>26</dim>
				</port>
			</input>
			<output>
				<port id="1" precision="FP16">
					<dim>1</dim>
					<dim>576</dim>
					<dim>26</dim>
					<dim>26</dim>
				</port>
			</output>
		</layer>
		<layer id="178" name="7017570178_const" type="Const" version="opset1">
			<data element_type="f16" offset="717860" shape="576,1,1,3,3" size="10368"/>
			<output>
				<port id="1" precision="FP16">
					<dim>576</dim>
					<dim>1</dim>
					<dim>1</dim>
					<dim>3</dim>
					<dim>3</dim>
				</port>
			</output>
		</layer>
		<layer id="179" name="Conv_106" type="GroupConvolution" version="opset1">
			<data dilations="1,1" output_padding="0,0" pads_begin="1,1" pads_end="1,1" strides="1,1"/>
			<input>
				<port id="0">
					<dim>1</dim>
					<dim>576</dim>
					<dim>26</dim>
					<dim>26</dim>
				</port>
				<port id="1">
					<dim>576</dim>
					<dim>1</dim>
					<dim>1</dim>
					<dim>3</dim>
					<dim>3</dim>
				</port>
			</input>
			<output>
				<port id="2" precision="FP16">
					<dim>1</dim>
					<dim>576</dim>
					<dim>26</dim>
					<dim>26</dim>
				</port>
			</output>
		</layer>
		<layer id="180" name="data_add_3427234277/copy_const" type="Const" version="opset1">
			<data element_type="f16" offset="728228" shape="1,576,1,1" size="1152"/>
			<output>
				<port id="1" precision="FP16">
					<dim>1</dim>
					<dim>576</dim>
					<dim>1</dim>
					<dim>1</dim>
				</port>
			</output>
		</layer>
		<layer id="181" name="BatchNormalization_107/variance/Fused_Add_" type="Add" version="opset1">
			<input>
				<port id="0">
					<dim>1</dim>
					<dim>576</dim>
					<dim>26</dim>
					<dim>26</dim>
				</port>
				<port id="1">
					<dim>1</dim>
					<dim>576</dim>
					<dim>1</dim>
					<dim>1</dim>
				</port>
			</input>
			<output>
				<port id="2" precision="FP16">
					<dim>1</dim>
					<dim>576</dim>
					<dim>26</dim>
					<dim>26</dim>
				</port>
			</output>
		</layer>
		<layer id="182" name="Clip_108" type="Clamp" version="opset1">
			<data max="6.0" min="0.0"/>
			<input>
				<port id="0">
					<dim>1</dim>
					<dim>576</dim>
					<dim>26</dim>
					<dim>26</dim>
				</port>
			</input>
			<output>
				<port id="1" precision="FP16">
					<dim>1</dim>
					<dim>576</dim>
					<dim>26</dim>
					<dim>26</dim>
				</port>
			</output>
		</layer>
		<layer id="183" name="BatchNormalization_110/mean/Fused_Mul_3681236814_const" type="Const" version="opset1">
			<data element_type="f16" offset="729380" shape="96,576,1,1" size="110592"/>
			<output>
				<port id="1" precision="FP16">
					<dim>96</dim>
					<dim>576</dim>
					<dim>1</dim>
					<dim>1</dim>
				</port>
			</output>
		</layer>
		<layer id="184" name="Conv_109" type="Convolution" version="opset1">
			<data dilations="1,1" output_padding="0,0" pads_begin="0,0" pads_end="0,0" strides="1,1"/>
			<input>
				<port id="0">
					<dim>1</dim>
					<dim>576</dim>
					<dim>26</dim>
					<dim>26</dim>
				</port>
				<port id="1">
					<dim>96</dim>
					<dim>576</dim>
					<dim>1</dim>
					<dim>1</dim>
				</port>
			</input>
			<output>
				<port id="2" precision="FP16">
					<dim>1</dim>
					<dim>96</dim>
					<dim>26</dim>
					<dim>26</dim>
				</port>
			</output>
		</layer>
		<layer id="185" name="data_add_3428034285/copy_const" type="Const" version="opset1">
			<data element_type="f16" offset="839972" shape="1,96,1,1" size="192"/>
			<output>
				<port id="1" precision="FP16">
					<dim>1</dim>
					<dim>96</dim>
					<dim>1</dim>
					<dim>1</dim>
				</port>
			</output>
		</layer>
		<layer id="186" name="BatchNormalization_110/variance/Fused_Add_" type="Add" version="opset1">
			<input>
				<port id="0">
					<dim>1</dim>
					<dim>96</dim>
					<dim>26</dim>
					<dim>26</dim>
				</port>
				<port id="1">
					<dim>1</dim>
					<dim>96</dim>
					<dim>1</dim>
					<dim>1</dim>
				</port>
			</input>
			<output>
				<port id="2" precision="FP16">
					<dim>1</dim>
					<dim>96</dim>
					<dim>26</dim>
					<dim>26</dim>
				</port>
			</output>
		</layer>
		<layer id="187" name="Add_111" type="Add" version="opset1">
			<input>
				<port id="0">
					<dim>1</dim>
					<dim>96</dim>
					<dim>26</dim>
					<dim>26</dim>
				</port>
				<port id="1">
					<dim>1</dim>
					<dim>96</dim>
					<dim>26</dim>
					<dim>26</dim>
				</port>
			</input>
			<output>
				<port id="2" precision="FP16">
					<dim>1</dim>
					<dim>96</dim>
					<dim>26</dim>
					<dim>26</dim>
				</port>
			</output>
		</layer>
		<layer id="188" name="BatchNormalization_113/mean/Fused_Mul_3681636818_const" type="Const" version="opset1">
			<data element_type="f16" offset="840164" shape="576,96,1,1" size="110592"/>
			<output>
				<port id="1" precision="FP16">
					<dim>576</dim>
					<dim>96</dim>
					<dim>1</dim>
					<dim>1</dim>
				</port>
			</output>
		</layer>
		<layer id="189" name="Conv_112" type="Convolution" version="opset1">
			<data dilations="1,1" output_padding="0,0" pads_begin="0,0" pads_end="0,0" strides="1,1"/>
			<input>
				<port id="0">
					<dim>1</dim>
					<dim>96</dim>
					<dim>26</dim>
					<dim>26</dim>
				</port>
				<port id="1">
					<dim>576</dim>
					<dim>96</dim>
					<dim>1</dim>
					<dim>1</dim>
				</port>
			</input>
			<output>
				<port id="2" precision="FP16">
					<dim>1</dim>
					<dim>576</dim>
					<dim>26</dim>
					<dim>26</dim>
				</port>
			</output>
		</layer>
		<layer id="190" name="data_add_3428834293/copy_const" type="Const" version="opset1">
			<data element_type="f16" offset="950756" shape="1,576,1,1" size="1152"/>
			<output>
				<port id="1" precision="FP16">
					<dim>1</dim>
					<dim>576</dim>
					<dim>1</dim>
					<dim>1</dim>
				</port>
			</output>
		</layer>
		<layer id="191" name="BatchNormalization_113/variance/Fused_Add_" type="Add" version="opset1">
			<input>
				<port id="0">
					<dim>1</dim>
					<dim>576</dim>
					<dim>26</dim>
					<dim>26</dim>
				</port>
				<port id="1">
					<dim>1</dim>
					<dim>576</dim>
					<dim>1</dim>
					<dim>1</dim>
				</port>
			</input>
			<output>
				<port id="2" precision="FP16">
					<dim>1</dim>
					<dim>576</dim>
					<dim>26</dim>
					<dim>26</dim>
				</port>
			</output>
		</layer>
		<layer id="192" name="Clip_114" type="Clamp" version="opset1">
			<data max="6.0" min="0.0"/>
			<input>
				<port id="0">
					<dim>1</dim>
					<dim>576</dim>
					<dim>26</dim>
					<dim>26</dim>
				</port>
			</input>
			<output>
				<port id="1" precision="FP16">
					<dim>1</dim>
					<dim>576</dim>
					<dim>26</dim>
					<dim>26</dim>
				</port>
			</output>
		</layer>
		<layer id="193" name="7013970142_const" type="Const" version="opset1">
			<data element_type="f16" offset="951908" shape="576,1,1,3,3" size="10368"/>
			<output>
				<port id="1" precision="FP16">
					<dim>576</dim>
					<dim>1</dim>
					<dim>1</dim>
					<dim>3</dim>
					<dim>3</dim>
				</port>
			</output>
		</layer>
		<layer id="194" name="Conv_115" type="GroupConvolution" version="opset1">
			<data dilations="1,1" output_padding="0,0" pads_begin="1,1" pads_end="1,1" strides="1,1"/>
			<input>
				<port id="0">
					<dim>1</dim>
					<dim>576</dim>
					<dim>26</dim>
					<dim>26</dim>
				</port>
				<port id="1">
					<dim>576</dim>
					<dim>1</dim>
					<dim>1</dim>
					<dim>3</dim>
					<dim>3</dim>
				</port>
			</input>
			<output>
				<port id="2" precision="FP16">
					<dim>1</dim>
					<dim>576</dim>
					<dim>26</dim>
					<dim>26</dim>
				</port>
			</output>
		</layer>
		<layer id="195" name="data_add_3429634301/copy_const" type="Const" version="opset1">
			<data element_type="f16" offset="962276" shape="1,576,1,1" size="1152"/>
			<output>
				<port id="1" precision="FP16">
					<dim>1</dim>
					<dim>576</dim>
					<dim>1</dim>
					<dim>1</dim>
				</port>
			</output>
		</layer>
		<layer id="196" name="BatchNormalization_116/variance/Fused_Add_" type="Add" version="opset1">
			<input>
				<port id="0">
					<dim>1</dim>
					<dim>576</dim>
					<dim>26</dim>
					<dim>26</dim>
				</port>
				<port id="1">
					<dim>1</dim>
					<dim>576</dim>
					<dim>1</dim>
					<dim>1</dim>
				</port>
			</input>
			<output>
				<port id="2" precision="FP16">
					<dim>1</dim>
					<dim>576</dim>
					<dim>26</dim>
					<dim>26</dim>
				</port>
			</output>
		</layer>
		<layer id="197" name="Clip_117" type="Clamp" version="opset1">
			<data max="6.0" min="0.0"/>
			<input>
				<port id="0">
					<dim>1</dim>
					<dim>576</dim>
					<dim>26</dim>
					<dim>26</dim>
				</port>
			</input>
			<output>
				<port id="1" precision="FP16">
					<dim>1</dim>
					<dim>576</dim>
					<dim>26</dim>
					<dim>26</dim>
				</port>
			</output>
		</layer>
		<layer id="198" name="BatchNormalization_119/mean/Fused_Mul_3682436826_const" type="Const" version="opset1">
			<data element_type="f16" offset="963428" shape="96,576,1,1" size="110592"/>
			<output>
				<port id="1" precision="FP16">
					<dim>96</dim>
					<dim>576</dim>
					<dim>1</dim>
					<dim>1</dim>
				</port>
			</output>
		</layer>
		<layer id="199" name="Conv_118" type="Convolution" version="opset1">
			<data dilations="1,1" output_padding="0,0" pads_begin="0,0" pads_end="0,0" strides="1,1"/>
			<input>
				<port id="0">
					<dim>1</dim>
					<dim>576</dim>
					<dim>26</dim>
					<dim>26</dim>
				</port>
				<port id="1">
					<dim>96</dim>
					<dim>576</dim>
					<dim>1</dim>
					<dim>1</dim>
				</port>
			</input>
			<output>
				<port id="2" precision="FP16">
					<dim>1</dim>
					<dim>96</dim>
					<dim>26</dim>
					<dim>26</dim>
				</port>
			</output>
		</layer>
		<layer id="200" name="data_add_3430434309/copy_const" type="Const" version="opset1">
			<data element_type="f16" offset="1074020" shape="1,96,1,1" size="192"/>
			<output>
				<port id="1" precision="FP16">
					<dim>1</dim>
					<dim>96</dim>
					<dim>1</dim>
					<dim>1</dim>
				</port>
			</output>
		</layer>
		<layer id="201" name="BatchNormalization_119/variance/Fused_Add_" type="Add" version="opset1">
			<input>
				<port id="0">
					<dim>1</dim>
					<dim>96</dim>
					<dim>26</dim>
					<dim>26</dim>
				</port>
				<port id="1">
					<dim>1</dim>
					<dim>96</dim>
					<dim>1</dim>
					<dim>1</dim>
				</port>
			</input>
			<output>
				<port id="2" precision="FP16">
					<dim>1</dim>
					<dim>96</dim>
					<dim>26</dim>
					<dim>26</dim>
				</port>
			</output>
		</layer>
		<layer id="202" name="Add_120" type="Add" version="opset1">
			<input>
				<port id="0">
					<dim>1</dim>
					<dim>96</dim>
					<dim>26</dim>
					<dim>26</dim>
				</port>
				<port id="1">
					<dim>1</dim>
					<dim>96</dim>
					<dim>26</dim>
					<dim>26</dim>
				</port>
			</input>
			<output>
				<port id="2" precision="FP16">
					<dim>1</dim>
					<dim>96</dim>
					<dim>26</dim>
					<dim>26</dim>
				</port>
			</output>
		</layer>
		<layer id="203" name="onnx_initializer_node_neck.lateral_convs.1.conv.weight/Output_0/Data__const" type="Const" version="opset1">
			<data element_type="f16" offset="1074212" shape="48,96,1,1" size="9216"/>
			<output>
				<port id="1" precision="FP16">
					<dim>48</dim>
					<dim>96</dim>
					<dim>1</dim>
					<dim>1</dim>
				</port>
			</output>
		</layer>
		<layer id="204" name="Conv_156/WithoutBiases" type="Convolution" version="opset1">
			<data dilations="1,1" output_padding="0,0" pads_begin="0,0" pads_end="0,0" strides="1,1"/>
			<input>
				<port id="0">
					<dim>1</dim>
					<dim>96</dim>
					<dim>26</dim>
					<dim>26</dim>
				</port>
				<port id="1">
					<dim>48</dim>
					<dim>96</dim>
					<dim>1</dim>
					<dim>1</dim>
				</port>
			</input>
			<output>
				<port id="2" precision="FP16">
					<dim>1</dim>
					<dim>48</dim>
					<dim>26</dim>
					<dim>26</dim>
				</port>
			</output>
		</layer>
		<layer id="205" name="Conv_156/Dims21260/copy_const" type="Const" version="opset1">
			<data element_type="f16" offset="1083428" shape="1,48,1,1" size="96"/>
			<output>
				<port id="1" precision="FP16">
					<dim>1</dim>
					<dim>48</dim>
					<dim>1</dim>
					<dim>1</dim>
				</port>
			</output>
		</layer>
		<layer id="206" name="Conv_156" type="Add" version="opset1">
			<input>
				<port id="0">
					<dim>1</dim>
					<dim>48</dim>
					<dim>26</dim>
					<dim>26</dim>
				</port>
				<port id="1">
					<dim>1</dim>
					<dim>48</dim>
					<dim>1</dim>
					<dim>1</dim>
				</port>
			</input>
			<output>
				<port id="2" precision="FP16">
					<dim>1</dim>
					<dim>48</dim>
					<dim>26</dim>
					<dim>26</dim>
				</port>
			</output>
		</layer>
		<layer id="207" name="BatchNormalization_122/mean/Fused_Mul_3682836830_const" type="Const" version="opset1">
			<data element_type="f16" offset="1083524" shape="576,96,1,1" size="110592"/>
			<output>
				<port id="1" precision="FP16">
					<dim>576</dim>
					<dim>96</dim>
					<dim>1</dim>
					<dim>1</dim>
				</port>
			</output>
		</layer>
		<layer id="208" name="Conv_121" type="Convolution" version="opset1">
			<data dilations="1,1" output_padding="0,0" pads_begin="0,0" pads_end="0,0" strides="1,1"/>
			<input>
				<port id="0">
					<dim>1</dim>
					<dim>96</dim>
					<dim>26</dim>
					<dim>26</dim>
				</port>
				<port id="1">
					<dim>576</dim>
					<dim>96</dim>
					<dim>1</dim>
					<dim>1</dim>
				</port>
			</input>
			<output>
				<port id="2" precision="FP16">
					<dim>1</dim>
					<dim>576</dim>
					<dim>26</dim>
					<dim>26</dim>
				</port>
			</output>
		</layer>
		<layer id="209" name="data_add_3431234317/copy_const" type="Const" version="opset1">
			<data element_type="f16" offset="1194116" shape="1,576,1,1" size="1152"/>
			<output>
				<port id="1" precision="FP16">
					<dim>1</dim>
					<dim>576</dim>
					<dim>1</dim>
					<dim>1</dim>
				</port>
			</output>
		</layer>
		<layer id="210" name="BatchNormalization_122/variance/Fused_Add_" type="Add" version="opset1">
			<input>
				<port id="0">
					<dim>1</dim>
					<dim>576</dim>
					<dim>26</dim>
					<dim>26</dim>
				</port>
				<port id="1">
					<dim>1</dim>
					<dim>576</dim>
					<dim>1</dim>
					<dim>1</dim>
				</port>
			</input>
			<output>
				<port id="2" precision="FP16">
					<dim>1</dim>
					<dim>576</dim>
					<dim>26</dim>
					<dim>26</dim>
				</port>
			</output>
		</layer>
		<layer id="211" name="Clip_123" type="Clamp" version="opset1">
			<data max="6.0" min="0.0"/>
			<input>
				<port id="0">
					<dim>1</dim>
					<dim>576</dim>
					<dim>26</dim>
					<dim>26</dim>
				</port>
			</input>
			<output>
				<port id="1" precision="FP16">
					<dim>1</dim>
					<dim>576</dim>
					<dim>26</dim>
					<dim>26</dim>
				</port>
			</output>
		</layer>
		<layer id="212" name="7011570118_const" type="Const" version="opset1">
			<data element_type="f16" offset="1195268" shape="576,1,1,3,3" size="10368"/>
			<output>
				<port id="1" precision="FP16">
					<dim>576</dim>
					<dim>1</dim>
					<dim>1</dim>
					<dim>3</dim>
					<dim>3</dim>
				</port>
			</output>
		</layer>
		<layer id="213" name="Conv_124" type="GroupConvolution" version="opset1">
			<data dilations="1,1" output_padding="0,0" pads_begin="1,1" pads_end="1,1" strides="2,2"/>
			<input>
				<port id="0">
					<dim>1</dim>
					<dim>576</dim>
					<dim>26</dim>
					<dim>26</dim>
				</port>
				<port id="1">
					<dim>576</dim>
					<dim>1</dim>
					<dim>1</dim>
					<dim>3</dim>
					<dim>3</dim>
				</port>
			</input>
			<output>
				<port id="2" precision="FP16">
					<dim>1</dim>
					<dim>576</dim>
					<dim>13</dim>
					<dim>13</dim>
				</port>
			</output>
		</layer>
		<layer id="214" name="data_add_3432034325/copy_const" type="Const" version="opset1">
			<data element_type="f16" offset="1205636" shape="1,576,1,1" size="1152"/>
			<output>
				<port id="1" precision="FP16">
					<dim>1</dim>
					<dim>576</dim>
					<dim>1</dim>
					<dim>1</dim>
				</port>
			</output>
		</layer>
		<layer id="215" name="BatchNormalization_125/variance/Fused_Add_" type="Add" version="opset1">
			<input>
				<port id="0">
					<dim>1</dim>
					<dim>576</dim>
					<dim>13</dim>
					<dim>13</dim>
				</port>
				<port id="1">
					<dim>1</dim>
					<dim>576</dim>
					<dim>1</dim>
					<dim>1</dim>
				</port>
			</input>
			<output>
				<port id="2" precision="FP16">
					<dim>1</dim>
					<dim>576</dim>
					<dim>13</dim>
					<dim>13</dim>
				</port>
			</output>
		</layer>
		<layer id="216" name="Clip_126" type="Clamp" version="opset1">
			<data max="6.0" min="0.0"/>
			<input>
				<port id="0">
					<dim>1</dim>
					<dim>576</dim>
					<dim>13</dim>
					<dim>13</dim>
				</port>
			</input>
			<output>
				<port id="1" precision="FP16">
					<dim>1</dim>
					<dim>576</dim>
					<dim>13</dim>
					<dim>13</dim>
				</port>
			</output>
		</layer>
		<layer id="217" name="BatchNormalization_128/mean/Fused_Mul_3683636838_const" type="Const" version="opset1">
			<data element_type="f16" offset="1206788" shape="160,576,1,1" size="184320"/>
			<output>
				<port id="1" precision="FP16">
					<dim>160</dim>
					<dim>576</dim>
					<dim>1</dim>
					<dim>1</dim>
				</port>
			</output>
		</layer>
		<layer id="218" name="Conv_127" type="Convolution" version="opset1">
			<data dilations="1,1" output_padding="0,0" pads_begin="0,0" pads_end="0,0" strides="1,1"/>
			<input>
				<port id="0">
					<dim>1</dim>
					<dim>576</dim>
					<dim>13</dim>
					<dim>13</dim>
				</port>
				<port id="1">
					<dim>160</dim>
					<dim>576</dim>
					<dim>1</dim>
					<dim>1</dim>
				</port>
			</input>
			<output>
				<port id="2" precision="FP16">
					<dim>1</dim>
					<dim>160</dim>
					<dim>13</dim>
					<dim>13</dim>
				</port>
			</output>
		</layer>
		<layer id="219" name="data_add_3432834333/copy_const" type="Const" version="opset1">
			<data element_type="f16" offset="1391108" shape="1,160,1,1" size="320"/>
			<output>
				<port id="1" precision="FP16">
					<dim>1</dim>
					<dim>160</dim>
					<dim>1</dim>
					<dim>1</dim>
				</port>
			</output>
		</layer>
		<layer id="220" name="BatchNormalization_128/variance/Fused_Add_" type="Add" version="opset1">
			<input>
				<port id="0">
					<dim>1</dim>
					<dim>160</dim>
					<dim>13</dim>
					<dim>13</dim>
				</port>
				<port id="1">
					<dim>1</dim>
					<dim>160</dim>
					<dim>1</dim>
					<dim>1</dim>
				</port>
			</input>
			<output>
				<port id="2" precision="FP16">
					<dim>1</dim>
					<dim>160</dim>
					<dim>13</dim>
					<dim>13</dim>
				</port>
			</output>
		</layer>
		<layer id="221" name="BatchNormalization_130/mean/Fused_Mul_3684036842_const" type="Const" version="opset1">
			<data element_type="f16" offset="1391428" shape="960,160,1,1" size="307200"/>
			<output>
				<port id="1" precision="FP16">
					<dim>960</dim>
					<dim>160</dim>
					<dim>1</dim>
					<dim>1</dim>
				</port>
			</output>
		</layer>
		<layer id="222" name="Conv_129" type="Convolution" version="opset1">
			<data dilations="1,1" output_padding="0,0" pads_begin="0,0" pads_end="0,0" strides="1,1"/>
			<input>
				<port id="0">
					<dim>1</dim>
					<dim>160</dim>
					<dim>13</dim>
					<dim>13</dim>
				</port>
				<port id="1">
					<dim>960</dim>
					<dim>160</dim>
					<dim>1</dim>
					<dim>1</dim>
				</port>
			</input>
			<output>
				<port id="2" precision="FP16">
					<dim>1</dim>
					<dim>960</dim>
					<dim>13</dim>
					<dim>13</dim>
				</port>
			</output>
		</layer>
		<layer id="223" name="data_add_3433634341/copy_const" type="Const" version="opset1">
			<data element_type="f16" offset="1698628" shape="1,960,1,1" size="1920"/>
			<output>
				<port id="1" precision="FP16">
					<dim>1</dim>
					<dim>960</dim>
					<dim>1</dim>
					<dim>1</dim>
				</port>
			</output>
		</layer>
		<layer id="224" name="BatchNormalization_130/variance/Fused_Add_" type="Add" version="opset1">
			<input>
				<port id="0">
					<dim>1</dim>
					<dim>960</dim>
					<dim>13</dim>
					<dim>13</dim>
				</port>
				<port id="1">
					<dim>1</dim>
					<dim>960</dim>
					<dim>1</dim>
					<dim>1</dim>
				</port>
			</input>
			<output>
				<port id="2" precision="FP16">
					<dim>1</dim>
					<dim>960</dim>
					<dim>13</dim>
					<dim>13</dim>
				</port>
			</output>
		</layer>
		<layer id="225" name="Clip_131" type="Clamp" version="opset1">
			<data max="6.0" min="0.0"/>
			<input>
				<port id="0">
					<dim>1</dim>
					<dim>960</dim>
					<dim>13</dim>
					<dim>13</dim>
				</port>
			</input>
			<output>
				<port id="1" precision="FP16">
					<dim>1</dim>
					<dim>960</dim>
					<dim>13</dim>
					<dim>13</dim>
				</port>
			</output>
		</layer>
		<layer id="226" name="7015970162_const" type="Const" version="opset1">
			<data element_type="f16" offset="1700548" shape="960,1,1,3,3" size="17280"/>
			<output>
				<port id="1" precision="FP16">
					<dim>960</dim>
					<dim>1</dim>
					<dim>1</dim>
					<dim>3</dim>
					<dim>3</dim>
				</port>
			</output>
		</layer>
		<layer id="227" name="Conv_132" type="GroupConvolution" version="opset1">
			<data dilations="1,1" output_padding="0,0" pads_begin="1,1" pads_end="1,1" strides="1,1"/>
			<input>
				<port id="0">
					<dim>1</dim>
					<dim>960</dim>
					<dim>13</dim>
					<dim>13</dim>
				</port>
				<port id="1">
					<dim>960</dim>
					<dim>1</dim>
					<dim>1</dim>
					<dim>3</dim>
					<dim>3</dim>
				</port>
			</input>
			<output>
				<port id="2" precision="FP16">
					<dim>1</dim>
					<dim>960</dim>
					<dim>13</dim>
					<dim>13</dim>
				</port>
			</output>
		</layer>
		<layer id="228" name="data_add_3434434349/copy_const" type="Const" version="opset1">
			<data element_type="f16" offset="1717828" shape="1,960,1,1" size="1920"/>
			<output>
				<port id="1" precision="FP16">
					<dim>1</dim>
					<dim>960</dim>
					<dim>1</dim>
					<dim>1</dim>
				</port>
			</output>
		</layer>
		<layer id="229" name="BatchNormalization_133/variance/Fused_Add_" type="Add" version="opset1">
			<input>
				<port id="0">
					<dim>1</dim>
					<dim>960</dim>
					<dim>13</dim>
					<dim>13</dim>
				</port>
				<port id="1">
					<dim>1</dim>
					<dim>960</dim>
					<dim>1</dim>
					<dim>1</dim>
				</port>
			</input>
			<output>
				<port id="2" precision="FP16">
					<dim>1</dim>
					<dim>960</dim>
					<dim>13</dim>
					<dim>13</dim>
				</port>
			</output>
		</layer>
		<layer id="230" name="Clip_134" type="Clamp" version="opset1">
			<data max="6.0" min="0.0"/>
			<input>
				<port id="0">
					<dim>1</dim>
					<dim>960</dim>
					<dim>13</dim>
					<dim>13</dim>
				</port>
			</input>
			<output>
				<port id="1" precision="FP16">
					<dim>1</dim>
					<dim>960</dim>
					<dim>13</dim>
					<dim>13</dim>
				</port>
			</output>
		</layer>
		<layer id="231" name="BatchNormalization_136/mean/Fused_Mul_3684836850_const" type="Const" version="opset1">
			<data element_type="f16" offset="1719748" shape="160,960,1,1" size="307200"/>
			<output>
				<port id="1" precision="FP16">
					<dim>160</dim>
					<dim>960</dim>
					<dim>1</dim>
					<dim>1</dim>
				</port>
			</output>
		</layer>
		<layer id="232" name="Conv_135" type="Convolution" version="opset1">
			<data dilations="1,1" output_padding="0,0" pads_begin="0,0" pads_end="0,0" strides="1,1"/>
			<input>
				<port id="0">
					<dim>1</dim>
					<dim>960</dim>
					<dim>13</dim>
					<dim>13</dim>
				</port>
				<port id="1">
					<dim>160</dim>
					<dim>960</dim>
					<dim>1</dim>
					<dim>1</dim>
				</port>
			</input>
			<output>
				<port id="2" precision="FP16">
					<dim>1</dim>
					<dim>160</dim>
					<dim>13</dim>
					<dim>13</dim>
				</port>
			</output>
		</layer>
		<layer id="233" name="data_add_3435234357/copy_const" type="Const" version="opset1">
			<data element_type="f16" offset="2026948" shape="1,160,1,1" size="320"/>
			<output>
				<port id="1" precision="FP16">
					<dim>1</dim>
					<dim>160</dim>
					<dim>1</dim>
					<dim>1</dim>
				</port>
			</output>
		</layer>
		<layer id="234" name="BatchNormalization_136/variance/Fused_Add_" type="Add" version="opset1">
			<input>
				<port id="0">
					<dim>1</dim>
					<dim>160</dim>
					<dim>13</dim>
					<dim>13</dim>
				</port>
				<port id="1">
					<dim>1</dim>
					<dim>160</dim>
					<dim>1</dim>
					<dim>1</dim>
				</port>
			</input>
			<output>
				<port id="2" precision="FP16">
					<dim>1</dim>
					<dim>160</dim>
					<dim>13</dim>
					<dim>13</dim>
				</port>
			</output>
		</layer>
		<layer id="235" name="Add_137" type="Add" version="opset1">
			<input>
				<port id="0">
					<dim>1</dim>
					<dim>160</dim>
					<dim>13</dim>
					<dim>13</dim>
				</port>
				<port id="1">
					<dim>1</dim>
					<dim>160</dim>
					<dim>13</dim>
					<dim>13</dim>
				</port>
			</input>
			<output>
				<port id="2" precision="FP16">
					<dim>1</dim>
					<dim>160</dim>
					<dim>13</dim>
					<dim>13</dim>
				</port>
			</output>
		</layer>
		<layer id="236" name="BatchNormalization_139/mean/Fused_Mul_3685236854_const" type="Const" version="opset1">
			<data element_type="f16" offset="2027268" shape="960,160,1,1" size="307200"/>
			<output>
				<port id="1" precision="FP16">
					<dim>960</dim>
					<dim>160</dim>
					<dim>1</dim>
					<dim>1</dim>
				</port>
			</output>
		</layer>
		<layer id="237" name="Conv_138" type="Convolution" version="opset1">
			<data dilations="1,1" output_padding="0,0" pads_begin="0,0" pads_end="0,0" strides="1,1"/>
			<input>
				<port id="0">
					<dim>1</dim>
					<dim>160</dim>
					<dim>13</dim>
					<dim>13</dim>
				</port>
				<port id="1">
					<dim>960</dim>
					<dim>160</dim>
					<dim>1</dim>
					<dim>1</dim>
				</port>
			</input>
			<output>
				<port id="2" precision="FP16">
					<dim>1</dim>
					<dim>960</dim>
					<dim>13</dim>
					<dim>13</dim>
				</port>
			</output>
		</layer>
		<layer id="238" name="data_add_3436034365/copy_const" type="Const" version="opset1">
			<data element_type="f16" offset="2334468" shape="1,960,1,1" size="1920"/>
			<output>
				<port id="1" precision="FP16">
					<dim>1</dim>
					<dim>960</dim>
					<dim>1</dim>
					<dim>1</dim>
				</port>
			</output>
		</layer>
		<layer id="239" name="BatchNormalization_139/variance/Fused_Add_" type="Add" version="opset1">
			<input>
				<port id="0">
					<dim>1</dim>
					<dim>960</dim>
					<dim>13</dim>
					<dim>13</dim>
				</port>
				<port id="1">
					<dim>1</dim>
					<dim>960</dim>
					<dim>1</dim>
					<dim>1</dim>
				</port>
			</input>
			<output>
				<port id="2" precision="FP16">
					<dim>1</dim>
					<dim>960</dim>
					<dim>13</dim>
					<dim>13</dim>
				</port>
			</output>
		</layer>
		<layer id="240" name="Clip_140" type="Clamp" version="opset1">
			<data max="6.0" min="0.0"/>
			<input>
				<port id="0">
					<dim>1</dim>
					<dim>960</dim>
					<dim>13</dim>
					<dim>13</dim>
				</port>
			</input>
			<output>
				<port id="1" precision="FP16">
					<dim>1</dim>
					<dim>960</dim>
					<dim>13</dim>
					<dim>13</dim>
				</port>
			</output>
		</layer>
		<layer id="241" name="7014770150_const" type="Const" version="opset1">
			<data element_type="f16" offset="2336388" shape="960,1,1,3,3" size="17280"/>
			<output>
				<port id="1" precision="FP16">
					<dim>960</dim>
					<dim>1</dim>
					<dim>1</dim>
					<dim>3</dim>
					<dim>3</dim>
				</port>
			</output>
		</layer>
		<layer id="242" name="Conv_141" type="GroupConvolution" version="opset1">
			<data dilations="1,1" output_padding="0,0" pads_begin="1,1" pads_end="1,1" strides="1,1"/>
			<input>
				<port id="0">
					<dim>1</dim>
					<dim>960</dim>
					<dim>13</dim>
					<dim>13</dim>
				</port>
				<port id="1">
					<dim>960</dim>
					<dim>1</dim>
					<dim>1</dim>
					<dim>3</dim>
					<dim>3</dim>
				</port>
			</input>
			<output>
				<port id="2" precision="FP16">
					<dim>1</dim>
					<dim>960</dim>
					<dim>13</dim>
					<dim>13</dim>
				</port>
			</output>
		</layer>
		<layer id="243" name="data_add_3436834373/copy_const" type="Const" version="opset1">
			<data element_type="f16" offset="2353668" shape="1,960,1,1" size="1920"/>
			<output>
				<port id="1" precision="FP16">
					<dim>1</dim>
					<dim>960</dim>
					<dim>1</dim>
					<dim>1</dim>
				</port>
			</output>
		</layer>
		<layer id="244" name="BatchNormalization_142/variance/Fused_Add_" type="Add" version="opset1">
			<input>
				<port id="0">
					<dim>1</dim>
					<dim>960</dim>
					<dim>13</dim>
					<dim>13</dim>
				</port>
				<port id="1">
					<dim>1</dim>
					<dim>960</dim>
					<dim>1</dim>
					<dim>1</dim>
				</port>
			</input>
			<output>
				<port id="2" precision="FP16">
					<dim>1</dim>
					<dim>960</dim>
					<dim>13</dim>
					<dim>13</dim>
				</port>
			</output>
		</layer>
		<layer id="245" name="Clip_143" type="Clamp" version="opset1">
			<data max="6.0" min="0.0"/>
			<input>
				<port id="0">
					<dim>1</dim>
					<dim>960</dim>
					<dim>13</dim>
					<dim>13</dim>
				</port>
			</input>
			<output>
				<port id="1" precision="FP16">
					<dim>1</dim>
					<dim>960</dim>
					<dim>13</dim>
					<dim>13</dim>
				</port>
			</output>
		</layer>
		<layer id="246" name="BatchNormalization_145/mean/Fused_Mul_3686036862_const" type="Const" version="opset1">
			<data element_type="f16" offset="2355588" shape="160,960,1,1" size="307200"/>
			<output>
				<port id="1" precision="FP16">
					<dim>160</dim>
					<dim>960</dim>
					<dim>1</dim>
					<dim>1</dim>
				</port>
			</output>
		</layer>
		<layer id="247" name="Conv_144" type="Convolution" version="opset1">
			<data dilations="1,1" output_padding="0,0" pads_begin="0,0" pads_end="0,0" strides="1,1"/>
			<input>
				<port id="0">
					<dim>1</dim>
					<dim>960</dim>
					<dim>13</dim>
					<dim>13</dim>
				</port>
				<port id="1">
					<dim>160</dim>
					<dim>960</dim>
					<dim>1</dim>
					<dim>1</dim>
				</port>
			</input>
			<output>
				<port id="2" precision="FP16">
					<dim>1</dim>
					<dim>160</dim>
					<dim>13</dim>
					<dim>13</dim>
				</port>
			</output>
		</layer>
		<layer id="248" name="data_add_3437634381/copy_const" type="Const" version="opset1">
			<data element_type="f16" offset="2662788" shape="1,160,1,1" size="320"/>
			<output>
				<port id="1" precision="FP16">
					<dim>1</dim>
					<dim>160</dim>
					<dim>1</dim>
					<dim>1</dim>
				</port>
			</output>
		</layer>
		<layer id="249" name="BatchNormalization_145/variance/Fused_Add_" type="Add" version="opset1">
			<input>
				<port id="0">
					<dim>1</dim>
					<dim>160</dim>
					<dim>13</dim>
					<dim>13</dim>
				</port>
				<port id="1">
					<dim>1</dim>
					<dim>160</dim>
					<dim>1</dim>
					<dim>1</dim>
				</port>
			</input>
			<output>
				<port id="2" precision="FP16">
					<dim>1</dim>
					<dim>160</dim>
					<dim>13</dim>
					<dim>13</dim>
				</port>
			</output>
		</layer>
		<layer id="250" name="Add_146" type="Add" version="opset1">
			<input>
				<port id="0">
					<dim>1</dim>
					<dim>160</dim>
					<dim>13</dim>
					<dim>13</dim>
				</port>
				<port id="1">
					<dim>1</dim>
					<dim>160</dim>
					<dim>13</dim>
					<dim>13</dim>
				</port>
			</input>
			<output>
				<port id="2" precision="FP16">
					<dim>1</dim>
					<dim>160</dim>
					<dim>13</dim>
					<dim>13</dim>
				</port>
			</output>
		</layer>
		<layer id="251" name="BatchNormalization_148/mean/Fused_Mul_3686436866_const" type="Const" version="opset1">
			<data element_type="f16" offset="2663108" shape="960,160,1,1" size="307200"/>
			<output>
				<port id="1" precision="FP16">
					<dim>960</dim>
					<dim>160</dim>
					<dim>1</dim>
					<dim>1</dim>
				</port>
			</output>
		</layer>
		<layer id="252" name="Conv_147" type="Convolution" version="opset1">
			<data dilations="1,1" output_padding="0,0" pads_begin="0,0" pads_end="0,0" strides="1,1"/>
			<input>
				<port id="0">
					<dim>1</dim>
					<dim>160</dim>
					<dim>13</dim>
					<dim>13</dim>
				</port>
				<port id="1">
					<dim>960</dim>
					<dim>160</dim>
					<dim>1</dim>
					<dim>1</dim>
				</port>
			</input>
			<output>
				<port id="2" precision="FP16">
					<dim>1</dim>
					<dim>960</dim>
					<dim>13</dim>
					<dim>13</dim>
				</port>
			</output>
		</layer>
		<layer id="253" name="data_add_3438434389/copy_const" type="Const" version="opset1">
			<data element_type="f16" offset="2970308" shape="1,960,1,1" size="1920"/>
			<output>
				<port id="1" precision="FP16">
					<dim>1</dim>
					<dim>960</dim>
					<dim>1</dim>
					<dim>1</dim>
				</port>
			</output>
		</layer>
		<layer id="254" name="BatchNormalization_148/variance/Fused_Add_" type="Add" version="opset1">
			<input>
				<port id="0">
					<dim>1</dim>
					<dim>960</dim>
					<dim>13</dim>
					<dim>13</dim>
				</port>
				<port id="1">
					<dim>1</dim>
					<dim>960</dim>
					<dim>1</dim>
					<dim>1</dim>
				</port>
			</input>
			<output>
				<port id="2" precision="FP16">
					<dim>1</dim>
					<dim>960</dim>
					<dim>13</dim>
					<dim>13</dim>
				</port>
			</output>
		</layer>
		<layer id="255" name="Clip_149" type="Clamp" version="opset1">
			<data max="6.0" min="0.0"/>
			<input>
				<port id="0">
					<dim>1</dim>
					<dim>960</dim>
					<dim>13</dim>
					<dim>13</dim>
				</port>
			</input>
			<output>
				<port id="1" precision="FP16">
					<dim>1</dim>
					<dim>960</dim>
					<dim>13</dim>
					<dim>13</dim>
				</port>
			</output>
		</layer>
		<layer id="256" name="7011170114_const" type="Const" version="opset1">
			<data element_type="f16" offset="2972228" shape="960,1,1,3,3" size="17280"/>
			<output>
				<port id="1" precision="FP16">
					<dim>960</dim>
					<dim>1</dim>
					<dim>1</dim>
					<dim>3</dim>
					<dim>3</dim>
				</port>
			</output>
		</layer>
		<layer id="257" name="Conv_150" type="GroupConvolution" version="opset1">
			<data dilations="1,1" output_padding="0,0" pads_begin="1,1" pads_end="1,1" strides="1,1"/>
			<input>
				<port id="0">
					<dim>1</dim>
					<dim>960</dim>
					<dim>13</dim>
					<dim>13</dim>
				</port>
				<port id="1">
					<dim>960</dim>
					<dim>1</dim>
					<dim>1</dim>
					<dim>3</dim>
					<dim>3</dim>
				</port>
			</input>
			<output>
				<port id="2" precision="FP16">
					<dim>1</dim>
					<dim>960</dim>
					<dim>13</dim>
					<dim>13</dim>
				</port>
			</output>
		</layer>
		<layer id="258" name="data_add_3439234397/copy_const" type="Const" version="opset1">
			<data element_type="f16" offset="2989508" shape="1,960,1,1" size="1920"/>
			<output>
				<port id="1" precision="FP16">
					<dim>1</dim>
					<dim>960</dim>
					<dim>1</dim>
					<dim>1</dim>
				</port>
			</output>
		</layer>
		<layer id="259" name="BatchNormalization_151/variance/Fused_Add_" type="Add" version="opset1">
			<input>
				<port id="0">
					<dim>1</dim>
					<dim>960</dim>
					<dim>13</dim>
					<dim>13</dim>
				</port>
				<port id="1">
					<dim>1</dim>
					<dim>960</dim>
					<dim>1</dim>
					<dim>1</dim>
				</port>
			</input>
			<output>
				<port id="2" precision="FP16">
					<dim>1</dim>
					<dim>960</dim>
					<dim>13</dim>
					<dim>13</dim>
				</port>
			</output>
		</layer>
		<layer id="260" name="Clip_152" type="Clamp" version="opset1">
			<data max="6.0" min="0.0"/>
			<input>
				<port id="0">
					<dim>1</dim>
					<dim>960</dim>
					<dim>13</dim>
					<dim>13</dim>
				</port>
			</input>
			<output>
				<port id="1" precision="FP16">
					<dim>1</dim>
					<dim>960</dim>
					<dim>13</dim>
					<dim>13</dim>
				</port>
			</output>
		</layer>
		<layer id="261" name="BatchNormalization_154/mean/Fused_Mul_3687236874_const" type="Const" version="opset1">
			<data element_type="f16" offset="2991428" shape="320,960,1,1" size="614400"/>
			<output>
				<port id="1" precision="FP16">
					<dim>320</dim>
					<dim>960</dim>
					<dim>1</dim>
					<dim>1</dim>
				</port>
			</output>
		</layer>
		<layer id="262" name="Conv_153" type="Convolution" version="opset1">
			<data dilations="1,1" output_padding="0,0" pads_begin="0,0" pads_end="0,0" strides="1,1"/>
			<input>
				<port id="0">
					<dim>1</dim>
					<dim>960</dim>
					<dim>13</dim>
					<dim>13</dim>
				</port>
				<port id="1">
					<dim>320</dim>
					<dim>960</dim>
					<dim>1</dim>
					<dim>1</dim>
				</port>
			</input>
			<output>
				<port id="2" precision="FP16">
					<dim>1</dim>
					<dim>320</dim>
					<dim>13</dim>
					<dim>13</dim>
				</port>
			</output>
		</layer>
		<layer id="263" name="data_add_3440034405/copy_const" type="Const" version="opset1">
			<data element_type="f16" offset="3605828" shape="1,320,1,1" size="640"/>
			<output>
				<port id="1" precision="FP16">
					<dim>1</dim>
					<dim>320</dim>
					<dim>1</dim>
					<dim>1</dim>
				</port>
			</output>
		</layer>
		<layer id="264" name="BatchNormalization_154/variance/Fused_Add_" type="Add" version="opset1">
			<input>
				<port id="0">
					<dim>1</dim>
					<dim>320</dim>
					<dim>13</dim>
					<dim>13</dim>
				</port>
				<port id="1">
					<dim>1</dim>
					<dim>320</dim>
					<dim>1</dim>
					<dim>1</dim>
				</port>
			</input>
			<output>
				<port id="2" precision="FP16">
					<dim>1</dim>
					<dim>320</dim>
					<dim>13</dim>
					<dim>13</dim>
				</port>
			</output>
		</layer>
		<layer id="265" name="onnx_initializer_node_neck.lateral_convs.2.conv.weight/Output_0/Data__const" type="Const" version="opset1">
			<data element_type="f16" offset="3606468" shape="48,320,1,1" size="30720"/>
			<output>
				<port id="1" precision="FP16">
					<dim>48</dim>
					<dim>320</dim>
					<dim>1</dim>
					<dim>1</dim>
				</port>
			</output>
		</layer>
		<layer id="266" name="Conv_157/WithoutBiases" type="Convolution" version="opset1">
			<data dilations="1,1" output_padding="0,0" pads_begin="0,0" pads_end="0,0" strides="1,1"/>
			<input>
				<port id="0">
					<dim>1</dim>
					<dim>320</dim>
					<dim>13</dim>
					<dim>13</dim>
				</port>
				<port id="1">
					<dim>48</dim>
					<dim>320</dim>
					<dim>1</dim>
					<dim>1</dim>
				</port>
			</input>
			<output>
				<port id="2" precision="FP16">
					<dim>1</dim>
					<dim>48</dim>
					<dim>13</dim>
					<dim>13</dim>
				</port>
			</output>
		</layer>
		<layer id="267" name="Conv_157/Dims21254/copy_const" type="Const" version="opset1">
			<data element_type="f16" offset="3637188" shape="1,48,1,1" size="96"/>
			<output>
				<port id="1" precision="FP16">
					<dim>1</dim>
					<dim>48</dim>
					<dim>1</dim>
					<dim>1</dim>
				</port>
			</output>
		</layer>
		<layer id="268" name="Conv_157" type="Add" version="opset1">
			<input>
				<port id="0">
					<dim>1</dim>
					<dim>48</dim>
					<dim>13</dim>
					<dim>13</dim>
				</port>
				<port id="1">
					<dim>1</dim>
					<dim>48</dim>
					<dim>1</dim>
					<dim>1</dim>
				</port>
			</input>
			<output>
				<port id="2" precision="FP16">
					<dim>1</dim>
					<dim>48</dim>
					<dim>13</dim>
					<dim>13</dim>
				</port>
			</output>
		</layer>
		<layer id="269" name="Resize_177/0_port" type="ShapeOf" version="opset3">
			<data output_type="i64"/>
			<input>
				<port id="0">
					<dim>1</dim>
					<dim>48</dim>
					<dim>13</dim>
					<dim>13</dim>
				</port>
			</input>
			<output>
				<port id="1" precision="I64">
					<dim>4</dim>
				</port>
			</output>
		</layer>
		<layer id="270" name="Resize_177/ss_0_port/Cast_172690_const" type="Const" version="opset1">
			<data element_type="i64" offset="3637284" shape="1" size="8"/>
			<output>
				<port id="1" precision="I64">
					<dim>1</dim>
				</port>
			</output>
		</layer>
		<layer id="271" name="Resize_177/ss_0_port/Cast_272692_const" type="Const" version="opset1">
			<data element_type="i64" offset="3637292" shape="1" size="8"/>
			<output>
				<port id="1" precision="I64">
					<dim>1</dim>
				</port>
			</output>
		</layer>
		<layer id="272" name="Resize_177/ss_0_port/Cast_372694_const" type="Const" version="opset1">
			<data element_type="i64" offset="3637300" shape="1" size="8"/>
			<output>
				<port id="1" precision="I64">
					<dim>1</dim>
				</port>
			</output>
		</layer>
		<layer id="273" name="Resize_177/ss_0_port" type="StridedSlice" version="opset1">
			<data begin_mask="0" ellipsis_mask="0" end_mask="0" new_axis_mask="0" shrink_axis_mask="0"/>
			<input>
				<port id="0">
					<dim>4</dim>
				</port>
				<port id="1">
					<dim>1</dim>
				</port>
				<port id="2">
					<dim>1</dim>
				</port>
				<port id="3">
					<dim>1</dim>
				</port>
			</input>
			<output>
				<port id="4" precision="I64">
					<dim>2</dim>
				</port>
			</output>
		</layer>
		<layer id="274" name="16653" type="Convert" version="opset1">
			<data destination_type="f32"/>
			<input>
				<port id="0">
					<dim>2</dim>
				</port>
			</input>
			<output>
				<port id="1" precision="FP32">
					<dim>2</dim>
				</port>
			</output>
		</layer>
		<layer id="275" name="Resize_177/factor_mul_/value16647_const" type="Const" version="opset1">
			<data element_type="f32" offset="3637308" shape="2" size="8"/>
			<output>
				<port id="1" precision="FP32">
					<dim>2</dim>
				</port>
			</output>
		</layer>
		<layer id="276" name="Resize_177/factor_mul_" type="Multiply" version="opset1">
			<input>
				<port id="0">
					<dim>2</dim>
				</port>
				<port id="1">
					<dim>2</dim>
				</port>
			</input>
			<output>
				<port id="2" precision="FP32">
					<dim>2</dim>
				</port>
			</output>
		</layer>
		<layer id="277" name="16654" type="Convert" version="opset1">
			<data destination_type="i64"/>
			<input>
				<port id="0">
					<dim>2</dim>
				</port>
			</input>
			<output>
				<port id="1" precision="I64">
					<dim>2</dim>
				</port>
			</output>
		</layer>
		<layer id="278" name="Resize_177/Interpolate" type="Interpolate" version="opset1">
			<data align_corners="0" antialias="0" axes="2,3" mode="nearest" pads_begin="0" pads_end="0"/>
			<input>
				<port id="0">
					<dim>1</dim>
					<dim>48</dim>
					<dim>13</dim>
					<dim>13</dim>
				</port>
				<port id="1">
					<dim>2</dim>
				</port>
			</input>
			<output>
				<port id="2" precision="FP16">
					<dim>1</dim>
					<dim>48</dim>
					<dim>26</dim>
					<dim>26</dim>
				</port>
			</output>
		</layer>
		<layer id="279" name="Add_178" type="Add" version="opset1">
			<input>
				<port id="0">
					<dim>1</dim>
					<dim>48</dim>
					<dim>26</dim>
					<dim>26</dim>
				</port>
				<port id="1">
					<dim>1</dim>
					<dim>48</dim>
					<dim>26</dim>
					<dim>26</dim>
				</port>
			</input>
			<output>
				<port id="2" precision="FP16">
					<dim>1</dim>
					<dim>48</dim>
					<dim>26</dim>
					<dim>26</dim>
				</port>
			</output>
		</layer>
		<layer id="280" name="Resize_198/0_port" type="ShapeOf" version="opset3">
			<data output_type="i64"/>
			<input>
				<port id="0">
					<dim>1</dim>
					<dim>48</dim>
					<dim>26</dim>
					<dim>26</dim>
				</port>
			</input>
			<output>
				<port id="1" precision="I64">
					<dim>4</dim>
				</port>
			</output>
		</layer>
		<layer id="281" name="Resize_198/ss_0_port/Cast_172088_const" type="Const" version="opset1">
			<data element_type="i64" offset="3637284" shape="1" size="8"/>
			<output>
				<port id="1" precision="I64">
					<dim>1</dim>
				</port>
			</output>
		</layer>
		<layer id="282" name="Resize_198/ss_0_port/Cast_272090_const" type="Const" version="opset1">
			<data element_type="i64" offset="3637292" shape="1" size="8"/>
			<output>
				<port id="1" precision="I64">
					<dim>1</dim>
				</port>
			</output>
		</layer>
		<layer id="283" name="Resize_198/ss_0_port/Cast_372092_const" type="Const" version="opset1">
			<data element_type="i64" offset="3637300" shape="1" size="8"/>
			<output>
				<port id="1" precision="I64">
					<dim>1</dim>
				</port>
			</output>
		</layer>
		<layer id="284" name="Resize_198/ss_0_port" type="StridedSlice" version="opset1">
			<data begin_mask="0" ellipsis_mask="0" end_mask="0" new_axis_mask="0" shrink_axis_mask="0"/>
			<input>
				<port id="0">
					<dim>4</dim>
				</port>
				<port id="1">
					<dim>1</dim>
				</port>
				<port id="2">
					<dim>1</dim>
				</port>
				<port id="3">
					<dim>1</dim>
				</port>
			</input>
			<output>
				<port id="4" precision="I64">
					<dim>2</dim>
				</port>
			</output>
		</layer>
		<layer id="285" name="16673" type="Convert" version="opset1">
			<data destination_type="f32"/>
			<input>
				<port id="0">
					<dim>2</dim>
				</port>
			</input>
			<output>
				<port id="1" precision="FP32">
					<dim>2</dim>
				</port>
			</output>
		</layer>
		<layer id="286" name="Resize_198/factor_mul_/value16667_const" type="Const" version="opset1">
			<data element_type="f32" offset="3637308" shape="2" size="8"/>
			<output>
				<port id="1" precision="FP32">
					<dim>2</dim>
				</port>
			</output>
		</layer>
		<layer id="287" name="Resize_198/factor_mul_" type="Multiply" version="opset1">
			<input>
				<port id="0">
					<dim>2</dim>
				</port>
				<port id="1">
					<dim>2</dim>
				</port>
			</input>
			<output>
				<port id="2" precision="FP32">
					<dim>2</dim>
				</port>
			</output>
		</layer>
		<layer id="288" name="16674" type="Convert" version="opset1">
			<data destination_type="i64"/>
			<input>
				<port id="0">
					<dim>2</dim>
				</port>
			</input>
			<output>
				<port id="1" precision="I64">
					<dim>2</dim>
				</port>
			</output>
		</layer>
		<layer id="289" name="Resize_198/Interpolate" type="Interpolate" version="opset1">
			<data align_corners="0" antialias="0" axes="2,3" mode="nearest" pads_begin="0" pads_end="0"/>
			<input>
				<port id="0">
					<dim>1</dim>
					<dim>48</dim>
					<dim>26</dim>
					<dim>26</dim>
				</port>
				<port id="1">
					<dim>2</dim>
				</port>
			</input>
			<output>
				<port id="2" precision="FP16">
					<dim>1</dim>
					<dim>48</dim>
					<dim>52</dim>
					<dim>52</dim>
				</port>
			</output>
		</layer>
		<layer id="290" name="Add_199" type="Add" version="opset1">
			<input>
				<port id="0">
					<dim>1</dim>
					<dim>48</dim>
					<dim>52</dim>
					<dim>52</dim>
				</port>
				<port id="1">
					<dim>1</dim>
					<dim>48</dim>
					<dim>52</dim>
					<dim>52</dim>
				</port>
			</input>
			<output>
				<port id="2" precision="FP16">
					<dim>1</dim>
					<dim>48</dim>
					<dim>52</dim>
					<dim>52</dim>
				</port>
			</output>
		</layer>
		<layer id="291" name="onnx_initializer_node_neck.fpn_convs.0.conv.weight/Output_0/Data__const" type="Const" version="opset1">
			<data element_type="f16" offset="3637316" shape="48,48,3,3" size="41472"/>
			<output>
				<port id="1" precision="FP16">
					<dim>48</dim>
					<dim>48</dim>
					<dim>3</dim>
					<dim>3</dim>
				</port>
			</output>
		</layer>
		<layer id="292" name="Conv_200/WithoutBiases" type="Convolution" version="opset1">
			<data dilations="1,1" output_padding="0,0" pads_begin="1,1" pads_end="1,1" strides="1,1"/>
			<input>
				<port id="0">
					<dim>1</dim>
					<dim>48</dim>
					<dim>52</dim>
					<dim>52</dim>
				</port>
				<port id="1">
					<dim>48</dim>
					<dim>48</dim>
					<dim>3</dim>
					<dim>3</dim>
				</port>
			</input>
			<output>
				<port id="2" precision="FP16">
					<dim>1</dim>
					<dim>48</dim>
					<dim>52</dim>
					<dim>52</dim>
				</port>
			</output>
		</layer>
		<layer id="293" name="Conv_200/Dims21134/copy_const" type="Const" version="opset1">
			<data element_type="f16" offset="3678788" shape="1,48,1,1" size="96"/>
			<output>
				<port id="1" precision="FP16">
					<dim>1</dim>
					<dim>48</dim>
					<dim>1</dim>
					<dim>1</dim>
				</port>
			</output>
		</layer>
		<layer id="294" name="Conv_200" type="Add" version="opset1">
			<input>
				<port id="0">
					<dim>1</dim>
					<dim>48</dim>
					<dim>52</dim>
					<dim>52</dim>
				</port>
				<port id="1">
					<dim>1</dim>
					<dim>48</dim>
					<dim>1</dim>
					<dim>1</dim>
				</port>
			</input>
			<output>
				<port id="2" precision="FP16">
					<dim>1</dim>
					<dim>48</dim>
					<dim>52</dim>
					<dim>52</dim>
				</port>
			</output>
		</layer>
		<layer id="295" name="Copy_onnx_initializer_node_bbox_head.cls_convs.0.conv.weight/Output_0/Data__const" type="Const" version="opset1">
			<data element_type="f16" offset="3678884" shape="32,48,3,3" size="27648"/>
			<output>
				<port id="1" precision="FP16">
					<dim>32</dim>
					<dim>48</dim>
					<dim>3</dim>
					<dim>3</dim>
				</port>
			</output>
		</layer>
		<layer id="296" name="Conv_206" type="Convolution" version="opset1">
			<data dilations="1,1" output_padding="0,0" pads_begin="1,1" pads_end="1,1" strides="1,1"/>
			<input>
				<port id="0">
					<dim>1</dim>
					<dim>48</dim>
					<dim>52</dim>
					<dim>52</dim>
				</port>
				<port id="1">
					<dim>32</dim>
					<dim>48</dim>
					<dim>3</dim>
					<dim>3</dim>
				</port>
			</input>
			<output>
				<port id="2" precision="FP16">
					<dim>1</dim>
					<dim>32</dim>
					<dim>52</dim>
					<dim>52</dim>
				</port>
			</output>
		</layer>
		<layer id="297" name="InstanceNormalization_207/Ins_Norm/MVN_" type="MVN" version="opset2">
			<data across_channels="0" eps="9.999999747378752e-06" normalize_variance="1"/>
			<input>
				<port id="0">
					<dim>1</dim>
					<dim>32</dim>
					<dim>52</dim>
					<dim>52</dim>
				</port>
			</input>
			<output>
				<port id="1" precision="FP16">
					<dim>1</dim>
					<dim>32</dim>
					<dim>52</dim>
					<dim>52</dim>
				</port>
			</output>
		</layer>
		<layer id="298" name="Copy_onnx_initializer_node_bbox_head.cls_convs.0.gn.weight/Output_0/Data_/copy/copy_const" type="Const" version="opset1">
			<data element_type="f16" offset="3706532" shape="1,32,1,1" size="64"/>
			<output>
				<port id="1" precision="FP16">
					<dim>1</dim>
					<dim>32</dim>
					<dim>1</dim>
					<dim>1</dim>
				</port>
			</output>
		</layer>
		<layer id="299" name="InstanceNormalization_207/Ins_Norm/mul_" type="Multiply" version="opset1">
			<input>
				<port id="0">
					<dim>1</dim>
					<dim>32</dim>
					<dim>52</dim>
					<dim>52</dim>
				</port>
				<port id="1">
					<dim>1</dim>
					<dim>32</dim>
					<dim>1</dim>
					<dim>1</dim>
				</port>
			</input>
			<output>
				<port id="2" precision="FP16">
					<dim>1</dim>
					<dim>32</dim>
					<dim>52</dim>
					<dim>52</dim>
				</port>
			</output>
		</layer>
		<layer id="300" name="Copy_onnx_initializer_node_bbox_head.cls_convs.0.gn.bias/Output_0/Data_/copy/copy_const" type="Const" version="opset1">
			<data element_type="f16" offset="3706596" shape="1,32,1,1" size="64"/>
			<output>
				<port id="1" precision="FP16">
					<dim>1</dim>
					<dim>32</dim>
					<dim>1</dim>
					<dim>1</dim>
				</port>
			</output>
		</layer>
		<layer id="301" name="InstanceNormalization_207/Ins_Norm/add_" type="Add" version="opset1">
			<input>
				<port id="0">
					<dim>1</dim>
					<dim>32</dim>
					<dim>52</dim>
					<dim>52</dim>
				</port>
				<port id="1">
					<dim>1</dim>
					<dim>32</dim>
					<dim>1</dim>
					<dim>1</dim>
				</port>
			</input>
			<output>
				<port id="2" precision="FP16">
					<dim>1</dim>
					<dim>32</dim>
					<dim>52</dim>
					<dim>52</dim>
				</port>
			</output>
		</layer>
		<layer id="302" name="Relu_208" type="ReLU" version="opset1">
			<input>
				<port id="0">
					<dim>1</dim>
					<dim>32</dim>
					<dim>52</dim>
					<dim>52</dim>
				</port>
			</input>
			<output>
				<port id="1" precision="FP16">
					<dim>1</dim>
					<dim>32</dim>
					<dim>52</dim>
					<dim>52</dim>
				</port>
			</output>
		</layer>
		<layer id="303" name="Copy_onnx_initializer_node_bbox_head.cls_convs.1.conv.weight/Output_0/Data__const" type="Const" version="opset1">
			<data element_type="f16" offset="3706660" shape="32,32,3,3" size="18432"/>
			<output>
				<port id="1" precision="FP16">
					<dim>32</dim>
					<dim>32</dim>
					<dim>3</dim>
					<dim>3</dim>
				</port>
			</output>
		</layer>
		<layer id="304" name="Conv_209" type="Convolution" version="opset1">
			<data dilations="1,1" output_padding="0,0" pads_begin="1,1" pads_end="1,1" strides="1,1"/>
			<input>
				<port id="0">
					<dim>1</dim>
					<dim>32</dim>
					<dim>52</dim>
					<dim>52</dim>
				</port>
				<port id="1">
					<dim>32</dim>
					<dim>32</dim>
					<dim>3</dim>
					<dim>3</dim>
				</port>
			</input>
			<output>
				<port id="2" precision="FP16">
					<dim>1</dim>
					<dim>32</dim>
					<dim>52</dim>
					<dim>52</dim>
				</port>
			</output>
		</layer>
		<layer id="305" name="InstanceNormalization_210/Ins_Norm/MVN_" type="MVN" version="opset2">
			<data across_channels="0" eps="9.999999747378752e-06" normalize_variance="1"/>
			<input>
				<port id="0">
					<dim>1</dim>
					<dim>32</dim>
					<dim>52</dim>
					<dim>52</dim>
				</port>
			</input>
			<output>
				<port id="1" precision="FP16">
					<dim>1</dim>
					<dim>32</dim>
					<dim>52</dim>
					<dim>52</dim>
				</port>
			</output>
		</layer>
		<layer id="306" name="Copy_onnx_initializer_node_bbox_head.cls_convs.1.gn.weight/Output_0/Data_6568/copy/copy_const" type="Const" version="opset1">
			<data element_type="f16" offset="3725092" shape="1,32,1,1" size="64"/>
			<output>
				<port id="1" precision="FP16">
					<dim>1</dim>
					<dim>32</dim>
					<dim>1</dim>
					<dim>1</dim>
				</port>
			</output>
		</layer>
		<layer id="307" name="InstanceNormalization_210/Ins_Norm/mul_" type="Multiply" version="opset1">
			<input>
				<port id="0">
					<dim>1</dim>
					<dim>32</dim>
					<dim>52</dim>
					<dim>52</dim>
				</port>
				<port id="1">
					<dim>1</dim>
					<dim>32</dim>
					<dim>1</dim>
					<dim>1</dim>
				</port>
			</input>
			<output>
				<port id="2" precision="FP16">
					<dim>1</dim>
					<dim>32</dim>
					<dim>52</dim>
					<dim>52</dim>
				</port>
			</output>
		</layer>
		<layer id="308" name="Copy_onnx_initializer_node_bbox_head.cls_convs.1.gn.bias/Output_0/Data_6563/copy/copy_const" type="Const" version="opset1">
			<data element_type="f16" offset="3725156" shape="1,32,1,1" size="64"/>
			<output>
				<port id="1" precision="FP16">
					<dim>1</dim>
					<dim>32</dim>
					<dim>1</dim>
					<dim>1</dim>
				</port>
			</output>
		</layer>
		<layer id="309" name="InstanceNormalization_210/Ins_Norm/add_" type="Add" version="opset1">
			<input>
				<port id="0">
					<dim>1</dim>
					<dim>32</dim>
					<dim>52</dim>
					<dim>52</dim>
				</port>
				<port id="1">
					<dim>1</dim>
					<dim>32</dim>
					<dim>1</dim>
					<dim>1</dim>
				</port>
			</input>
			<output>
				<port id="2" precision="FP16">
					<dim>1</dim>
					<dim>32</dim>
					<dim>52</dim>
					<dim>52</dim>
				</port>
			</output>
		</layer>
		<layer id="310" name="Relu_211" type="ReLU" version="opset1">
			<input>
				<port id="0">
					<dim>1</dim>
					<dim>32</dim>
					<dim>52</dim>
					<dim>52</dim>
				</port>
			</input>
			<output>
				<port id="1" precision="FP16">
					<dim>1</dim>
					<dim>32</dim>
					<dim>52</dim>
					<dim>52</dim>
				</port>
			</output>
		</layer>
		<layer id="311" name="Copy_onnx_initializer_node_bbox_head.cls_convs.2.conv.weight/Output_0/Data__const" type="Const" version="opset1">
			<data element_type="f16" offset="3725220" shape="32,32,3,3" size="18432"/>
			<output>
				<port id="1" precision="FP16">
					<dim>32</dim>
					<dim>32</dim>
					<dim>3</dim>
					<dim>3</dim>
				</port>
			</output>
		</layer>
		<layer id="312" name="Conv_212" type="Convolution" version="opset1">
			<data dilations="1,1" output_padding="0,0" pads_begin="1,1" pads_end="1,1" strides="1,1"/>
			<input>
				<port id="0">
					<dim>1</dim>
					<dim>32</dim>
					<dim>52</dim>
					<dim>52</dim>
				</port>
				<port id="1">
					<dim>32</dim>
					<dim>32</dim>
					<dim>3</dim>
					<dim>3</dim>
				</port>
			</input>
			<output>
				<port id="2" precision="FP16">
					<dim>1</dim>
					<dim>32</dim>
					<dim>52</dim>
					<dim>52</dim>
				</port>
			</output>
		</layer>
		<layer id="313" name="InstanceNormalization_213/Ins_Norm/MVN_" type="MVN" version="opset2">
			<data across_channels="0" eps="9.999999747378752e-06" normalize_variance="1"/>
			<input>
				<port id="0">
					<dim>1</dim>
					<dim>32</dim>
					<dim>52</dim>
					<dim>52</dim>
				</port>
			</input>
			<output>
				<port id="1" precision="FP16">
					<dim>1</dim>
					<dim>32</dim>
					<dim>52</dim>
					<dim>52</dim>
				</port>
			</output>
		</layer>
		<layer id="314" name="Copy_onnx_initializer_node_bbox_head.cls_convs.2.gn.weight/Output_0/Data_6585/copy/copy_const" type="Const" version="opset1">
			<data element_type="f16" offset="3743652" shape="1,32,1,1" size="64"/>
			<output>
				<port id="1" precision="FP16">
					<dim>1</dim>
					<dim>32</dim>
					<dim>1</dim>
					<dim>1</dim>
				</port>
			</output>
		</layer>
		<layer id="315" name="InstanceNormalization_213/Ins_Norm/mul_" type="Multiply" version="opset1">
			<input>
				<port id="0">
					<dim>1</dim>
					<dim>32</dim>
					<dim>52</dim>
					<dim>52</dim>
				</port>
				<port id="1">
					<dim>1</dim>
					<dim>32</dim>
					<dim>1</dim>
					<dim>1</dim>
				</port>
			</input>
			<output>
				<port id="2" precision="FP16">
					<dim>1</dim>
					<dim>32</dim>
					<dim>52</dim>
					<dim>52</dim>
				</port>
			</output>
		</layer>
		<layer id="316" name="Copy_onnx_initializer_node_bbox_head.cls_convs.2.gn.bias/Output_0/Data_6580/copy/copy_const" type="Const" version="opset1">
			<data element_type="f16" offset="3743716" shape="1,32,1,1" size="64"/>
			<output>
				<port id="1" precision="FP16">
					<dim>1</dim>
					<dim>32</dim>
					<dim>1</dim>
					<dim>1</dim>
				</port>
			</output>
		</layer>
		<layer id="317" name="InstanceNormalization_213/Ins_Norm/add_" type="Add" version="opset1">
			<input>
				<port id="0">
					<dim>1</dim>
					<dim>32</dim>
					<dim>52</dim>
					<dim>52</dim>
				</port>
				<port id="1">
					<dim>1</dim>
					<dim>32</dim>
					<dim>1</dim>
					<dim>1</dim>
				</port>
			</input>
			<output>
				<port id="2" precision="FP16">
					<dim>1</dim>
					<dim>32</dim>
					<dim>52</dim>
					<dim>52</dim>
				</port>
			</output>
		</layer>
		<layer id="318" name="Relu_214" type="ReLU" version="opset1">
			<input>
				<port id="0">
					<dim>1</dim>
					<dim>32</dim>
					<dim>52</dim>
					<dim>52</dim>
				</port>
			</input>
			<output>
				<port id="1" precision="FP16">
					<dim>1</dim>
					<dim>32</dim>
					<dim>52</dim>
					<dim>52</dim>
				</port>
			</output>
		</layer>
		<layer id="319" name="Copy_onnx_initializer_node_bbox_head.cls_convs.3.conv.weight/Output_0/Data__const" type="Const" version="opset1">
			<data element_type="f16" offset="3743780" shape="32,32,3,3" size="18432"/>
			<output>
				<port id="1" precision="FP16">
					<dim>32</dim>
					<dim>32</dim>
					<dim>3</dim>
					<dim>3</dim>
				</port>
			</output>
		</layer>
		<layer id="320" name="Conv_215" type="Convolution" version="opset1">
			<data dilations="1,1" output_padding="0,0" pads_begin="1,1" pads_end="1,1" strides="1,1"/>
			<input>
				<port id="0">
					<dim>1</dim>
					<dim>32</dim>
					<dim>52</dim>
					<dim>52</dim>
				</port>
				<port id="1">
					<dim>32</dim>
					<dim>32</dim>
					<dim>3</dim>
					<dim>3</dim>
				</port>
			</input>
			<output>
				<port id="2" precision="FP16">
					<dim>1</dim>
					<dim>32</dim>
					<dim>52</dim>
					<dim>52</dim>
				</port>
			</output>
		</layer>
		<layer id="321" name="InstanceNormalization_216/Ins_Norm/MVN_" type="MVN" version="opset2">
			<data across_channels="0" eps="9.999999747378752e-06" normalize_variance="1"/>
			<input>
				<port id="0">
					<dim>1</dim>
					<dim>32</dim>
					<dim>52</dim>
					<dim>52</dim>
				</port>
			</input>
			<output>
				<port id="1" precision="FP16">
					<dim>1</dim>
					<dim>32</dim>
					<dim>52</dim>
					<dim>52</dim>
				</port>
			</output>
		</layer>
		<layer id="322" name="Copy_onnx_initializer_node_bbox_head.cls_convs.3.gn.weight/Output_0/Data_6597/copy/copy_const" type="Const" version="opset1">
			<data element_type="f16" offset="3762212" shape="1,32,1,1" size="64"/>
			<output>
				<port id="1" precision="FP16">
					<dim>1</dim>
					<dim>32</dim>
					<dim>1</dim>
					<dim>1</dim>
				</port>
			</output>
		</layer>
		<layer id="323" name="InstanceNormalization_216/Ins_Norm/mul_" type="Multiply" version="opset1">
			<input>
				<port id="0">
					<dim>1</dim>
					<dim>32</dim>
					<dim>52</dim>
					<dim>52</dim>
				</port>
				<port id="1">
					<dim>1</dim>
					<dim>32</dim>
					<dim>1</dim>
					<dim>1</dim>
				</port>
			</input>
			<output>
				<port id="2" precision="FP16">
					<dim>1</dim>
					<dim>32</dim>
					<dim>52</dim>
					<dim>52</dim>
				</port>
			</output>
		</layer>
		<layer id="324" name="Copy_onnx_initializer_node_bbox_head.cls_convs.3.gn.bias/Output_0/Data_6592/copy/copy_const" type="Const" version="opset1">
			<data element_type="f16" offset="3762276" shape="1,32,1,1" size="64"/>
			<output>
				<port id="1" precision="FP16">
					<dim>1</dim>
					<dim>32</dim>
					<dim>1</dim>
					<dim>1</dim>
				</port>
			</output>
		</layer>
		<layer id="325" name="InstanceNormalization_216/Ins_Norm/add_" type="Add" version="opset1">
			<input>
				<port id="0">
					<dim>1</dim>
					<dim>32</dim>
					<dim>52</dim>
					<dim>52</dim>
				</port>
				<port id="1">
					<dim>1</dim>
					<dim>32</dim>
					<dim>1</dim>
					<dim>1</dim>
				</port>
			</input>
			<output>
				<port id="2" precision="FP16">
					<dim>1</dim>
					<dim>32</dim>
					<dim>52</dim>
					<dim>52</dim>
				</port>
			</output>
		</layer>
		<layer id="326" name="Relu_217" type="ReLU" version="opset1">
			<input>
				<port id="0">
					<dim>1</dim>
					<dim>32</dim>
					<dim>52</dim>
					<dim>52</dim>
				</port>
			</input>
			<output>
				<port id="1" precision="FP16">
					<dim>1</dim>
					<dim>32</dim>
					<dim>52</dim>
					<dim>52</dim>
				</port>
			</output>
		</layer>
		<layer id="327" name="Copy_onnx_initializer_node_bbox_head.fcos_cls.weight/Output_0/Data__const" type="Const" version="opset1">
			<data element_type="f16" offset="3762340" shape="1,32,3,3" size="576"/>
			<output>
				<port id="1" precision="FP16">
					<dim>1</dim>
					<dim>32</dim>
					<dim>3</dim>
					<dim>3</dim>
				</port>
			</output>
		</layer>
		<layer id="328" name="Conv_218/WithoutBiases" type="Convolution" version="opset1">
			<data dilations="1,1" output_padding="0,0" pads_begin="1,1" pads_end="1,1" strides="1,1"/>
			<input>
				<port id="0">
					<dim>1</dim>
					<dim>32</dim>
					<dim>52</dim>
					<dim>52</dim>
				</port>
				<port id="1">
					<dim>1</dim>
					<dim>32</dim>
					<dim>3</dim>
					<dim>3</dim>
				</port>
			</input>
			<output>
				<port id="2" precision="FP16">
					<dim>1</dim>
					<dim>1</dim>
					<dim>52</dim>
					<dim>52</dim>
				</port>
			</output>
		</layer>
		<layer id="329" name="Conv_218/Dims21206/copy_const" type="Const" version="opset1">
			<data element_type="f16" offset="3762916" shape="1,1,1,1" size="2"/>
			<output>
				<port id="1" precision="FP16">
					<dim>1</dim>
					<dim>1</dim>
					<dim>1</dim>
					<dim>1</dim>
				</port>
			</output>
		</layer>
		<layer id="330" name="Conv_218" type="Add" version="opset1">
			<input>
				<port id="0">
					<dim>1</dim>
					<dim>1</dim>
					<dim>52</dim>
					<dim>52</dim>
				</port>
				<port id="1">
					<dim>1</dim>
					<dim>1</dim>
					<dim>1</dim>
					<dim>1</dim>
				</port>
			</input>
			<output>
				<port id="2" precision="FP16">
					<dim>1</dim>
					<dim>1</dim>
					<dim>52</dim>
					<dim>52</dim>
				</port>
			</output>
		</layer>
		<layer id="331" name="Shape_359" type="ShapeOf" version="opset3">
			<data output_type="i64"/>
			<input>
				<port id="0">
					<dim>1</dim>
					<dim>1</dim>
					<dim>52</dim>
					<dim>52</dim>
				</port>
			</input>
			<output>
				<port id="1" precision="I64">
					<dim>4</dim>
				</port>
			</output>
		</layer>
		<layer id="332" name="Gather_3612196/Cast_172430_const" type="Const" version="opset1">
			<data element_type="i32" offset="3762918" shape="" size="4"/>
			<output>
				<port id="1" precision="I32"/>
			</output>
		</layer>
		<layer id="333" name="Gather_3612196/Cast_272432_const" type="Const" version="opset1">
			<data element_type="i64" offset="3762922" shape="" size="8"/>
			<output>
				<port id="1" precision="I64"/>
			</output>
		</layer>
		<layer id="334" name="Gather_3612196" type="Gather" version="opset1">
			<input>
				<port id="0">
					<dim>4</dim>
				</port>
				<port id="1"/>
				<port id="2"/>
			</input>
			<output>
				<port id="3" precision="I64"/>
			</output>
		</layer>
		<layer id="335" name="onnx_initializer_node_750/Output_0/Data__const" type="Const" version="opset1">
			<data element_type="i64" offset="3762930" shape="" size="8"/>
			<output>
				<port id="1" precision="I64"/>
			</output>
		</layer>
		<layer id="336" name="Mul_387" type="Multiply" version="opset1">
			<input>
				<port id="0"/>
				<port id="1"/>
			</input>
			<output>
				<port id="2" precision="I64"/>
			</output>
		</layer>
		<layer id="337" name="Unsqueeze_388/Dims/Output_0/Data__const" type="Const" version="opset1">
			<data element_type="i64" offset="3762922" shape="1" size="8"/>
			<output>
				<port id="1" precision="I64">
					<dim>1</dim>
				</port>
			</output>
		</layer>
		<layer id="338" name="Unsqueeze_388/Unsqueeze" type="Unsqueeze" version="opset1">
			<input>
				<port id="0"/>
				<port id="1">
					<dim>1</dim>
				</port>
			</input>
			<output>
				<port id="2" precision="I64">
					<dim>1</dim>
				</port>
			</output>
		</layer>
		<layer id="339" name="Copy_onnx_initializer_node_1718/Output_0/Data__const" type="Const" version="opset1">
			<data element_type="i64" offset="3762922" shape="1" size="8"/>
			<output>
				<port id="1" precision="I64">
					<dim>1</dim>
				</port>
			</output>
		</layer>
		<layer id="340" name="Sub_389" type="Subtract" version="opset1">
			<input>
				<port id="0">
					<dim>1</dim>
				</port>
				<port id="1">
					<dim>1</dim>
				</port>
			</input>
			<output>
				<port id="2" precision="I64">
					<dim>1</dim>
				</port>
			</output>
		</layer>
		<layer id="341" name="Copy_onnx_initializer_node_1717/Output_0/Data__const" type="Const" version="opset1">
			<data element_type="i64" offset="3762930" shape="1" size="8"/>
			<output>
				<port id="1" precision="I64">
					<dim>1</dim>
				</port>
			</output>
		</layer>
		<layer id="342" name="Div_390" type="Divide" version="opset1">
			<input>
				<port id="0">
					<dim>1</dim>
				</port>
				<port id="1">
					<dim>1</dim>
				</port>
			</input>
			<output>
				<port id="2" precision="I64">
					<dim>1</dim>
				</port>
			</output>
		</layer>
		<layer id="343" name="ConstantOfShape_391/Broadcast" type="Broadcast" version="opset3">
			<data mode="numpy"/>
			<input>
				<port id="0">
					<dim>1</dim>
				</port>
				<port id="1">
					<dim>1</dim>
				</port>
			</input>
			<output>
				<port id="2" precision="FP16">
					<dim>52</dim>
				</port>
			</output>
		</layer>
		<layer id="344" name="NonZero_392" type="NonZero" version="opset3">
			<data output_type="i64"/>
			<input>
				<port id="0">
					<dim>52</dim>
				</port>
			</input>
			<output>
				<port id="1" precision="I64">
					<dim>1</dim>
					<dim>52</dim>
				</port>
			</output>
		</layer>
		<layer id="345" name="Transpose_393/Cast_172572_const" type="Const" version="opset1">
			<data element_type="i64" offset="3762938" shape="2" size="16"/>
			<output>
				<port id="1" precision="I64">
					<dim>2</dim>
				</port>
			</output>
		</layer>
		<layer id="346" name="Transpose_393" type="Transpose" version="opset1">
			<input>
				<port id="0">
					<dim>1</dim>
					<dim>52</dim>
				</port>
				<port id="1">
					<dim>2</dim>
				</port>
			</input>
			<output>
				<port id="2" precision="I64">
					<dim>52</dim>
					<dim>1</dim>
				</port>
			</output>
		</layer>
		<layer id="347" name="Squeeze_394/Dims/Output_0/Data__const" type="Const" version="opset1">
			<data element_type="i64" offset="3637300" shape="1" size="8"/>
			<output>
				<port id="1" precision="I64">
					<dim>1</dim>
				</port>
			</output>
		</layer>
		<layer id="348" name="Squeeze_394" type="Squeeze" version="opset1">
			<input>
				<port id="0">
					<dim>52</dim>
					<dim>1</dim>
				</port>
				<port id="1">
					<dim>1</dim>
				</port>
			</input>
			<output>
				<port id="2" precision="I64">
					<dim>52</dim>
				</port>
			</output>
		</layer>
		<layer id="349" name="Copy_onnx_initializer_node_1717/Output_0/Data_6502_const" type="Const" version="opset1">
			<data element_type="i64" offset="3762930" shape="1" size="8"/>
			<output>
				<port id="1" precision="I64">
					<dim>1</dim>
				</port>
			</output>
		</layer>
		<layer id="350" name="Mul_395" type="Multiply" version="opset1">
			<input>
				<port id="0">
					<dim>52</dim>
				</port>
				<port id="1">
					<dim>1</dim>
				</port>
			</input>
			<output>
				<port id="2" precision="I64">
					<dim>52</dim>
				</port>
			</output>
		</layer>
		<layer id="351" name="Copy_onnx_initializer_node_1718/Output_0/Data_6504_const" type="Const" version="opset1">
			<data element_type="i64" offset="3762922" shape="1" size="8"/>
			<output>
				<port id="1" precision="I64">
					<dim>1</dim>
				</port>
			</output>
		</layer>
		<layer id="352" name="Add_396" type="Add" version="opset1">
			<input>
				<port id="0">
					<dim>52</dim>
				</port>
				<port id="1">
					<dim>1</dim>
				</port>
			</input>
			<output>
				<port id="2" precision="I64">
					<dim>52</dim>
				</port>
			</output>
		</layer>
		<layer id="353" name="Cast_397" type="Convert" version="opset1">
			<data destination_type="f16"/>
			<input>
				<port id="0">
					<dim>52</dim>
				</port>
			</input>
			<output>
				<port id="1" precision="FP16">
					<dim>52</dim>
				</port>
			</output>
		</layer>
		<layer id="354" name="Reshape_413/Cast_172232_const" type="Const" version="opset1">
			<data element_type="i64" offset="3762954" shape="1" size="8"/>
			<output>
				<port id="1" precision="I64">
					<dim>1</dim>
				</port>
			</output>
		</layer>
		<layer id="355" name="Reshape_413" type="Reshape" version="opset1">
			<data special_zero="True"/>
			<input>
				<port id="0">
					<dim>52</dim>
				</port>
				<port id="1">
					<dim>1</dim>
				</port>
			</input>
			<output>
				<port id="2" precision="FP16">
					<dim>52</dim>
				</port>
			</output>
		</layer>
		<layer id="356" name="onnx_initializer_node_793/Output_0/Data__const" type="Const" version="opset1">
			<data element_type="i64" offset="3637300" shape="1" size="8"/>
			<output>
				<port id="1" precision="I64">
					<dim>1</dim>
				</port>
			</output>
		</layer>
		<layer id="357" name="Shape_415" type="ShapeOf" version="opset3">
			<data output_type="i64"/>
			<input>
				<port id="0">
					<dim>52</dim>
				</port>
			</input>
			<output>
				<port id="1" precision="I64">
					<dim>1</dim>
				</port>
			</output>
		</layer>
		<layer id="358" name="Concat_422" type="Concat" version="opset1">
			<data axis="0"/>
			<input>
				<port id="0">
					<dim>1</dim>
				</port>
				<port id="1">
					<dim>1</dim>
				</port>
			</input>
			<output>
				<port id="2" precision="I64">
					<dim>2</dim>
				</port>
			</output>
		</layer>
		<layer id="359" name="Reshape_423" type="Reshape" version="opset1">
			<data special_zero="True"/>
			<input>
				<port id="0">
					<dim>52</dim>
				</port>
				<port id="1">
					<dim>2</dim>
				</port>
			</input>
			<output>
				<port id="2" precision="FP16">
					<dim>1</dim>
					<dim>52</dim>
				</port>
			</output>
		</layer>
		<layer id="360" name="ConstantOfShape_403/Broadcast/FillValue/Output_0/Data__const" type="Const" version="opset1">
			<data element_type="f16" offset="0" shape="1" size="2"/>
			<output>
				<port id="1" precision="FP16">
					<dim>1</dim>
				</port>
			</output>
		</layer>
		<layer id="361" name="Shape_356" type="ShapeOf" version="opset3">
			<data output_type="i64"/>
			<input>
				<port id="0">
					<dim>1</dim>
					<dim>1</dim>
					<dim>52</dim>
					<dim>52</dim>
				</port>
			</input>
			<output>
				<port id="1" precision="I64">
					<dim>4</dim>
				</port>
			</output>
		</layer>
		<layer id="362" name="Gather_3582228/Cast_172162_const" type="Const" version="opset1">
			<data element_type="i32" offset="3762962" shape="" size="4"/>
			<output>
				<port id="1" precision="I32"/>
			</output>
		</layer>
		<layer id="363" name="Gather_3582228/Cast_272164_const" type="Const" version="opset1">
			<data element_type="i64" offset="3762922" shape="" size="8"/>
			<output>
				<port id="1" precision="I64"/>
			</output>
		</layer>
		<layer id="364" name="Gather_3582228" type="Gather" version="opset1">
			<input>
				<port id="0">
					<dim>4</dim>
				</port>
				<port id="1"/>
				<port id="2"/>
			</input>
			<output>
				<port id="3" precision="I64"/>
			</output>
		</layer>
		<layer id="365" name="onnx_initializer_node_766/Output_0/Data__const" type="Const" version="opset1">
			<data element_type="i64" offset="3762930" shape="" size="8"/>
			<output>
				<port id="1" precision="I64"/>
			</output>
		</layer>
		<layer id="366" name="Mul_399" type="Multiply" version="opset1">
			<input>
				<port id="0"/>
				<port id="1"/>
			</input>
			<output>
				<port id="2" precision="I64"/>
			</output>
		</layer>
		<layer id="367" name="Unsqueeze_400/Dims/Output_0/Data__const" type="Const" version="opset1">
			<data element_type="i64" offset="3762922" shape="1" size="8"/>
			<output>
				<port id="1" precision="I64">
					<dim>1</dim>
				</port>
			</output>
		</layer>
		<layer id="368" name="Unsqueeze_400/Unsqueeze" type="Unsqueeze" version="opset1">
			<input>
				<port id="0"/>
				<port id="1">
					<dim>1</dim>
				</port>
			</input>
			<output>
				<port id="2" precision="I64">
					<dim>1</dim>
				</port>
			</output>
		</layer>
		<layer id="369" name="Copy_onnx_initializer_node_1720/Output_0/Data__const" type="Const" version="opset1">
			<data element_type="i64" offset="3762922" shape="1" size="8"/>
			<output>
				<port id="1" precision="I64">
					<dim>1</dim>
				</port>
			</output>
		</layer>
		<layer id="370" name="Sub_401" type="Subtract" version="opset1">
			<input>
				<port id="0">
					<dim>1</dim>
				</port>
				<port id="1">
					<dim>1</dim>
				</port>
			</input>
			<output>
				<port id="2" precision="I64">
					<dim>1</dim>
				</port>
			</output>
		</layer>
		<layer id="371" name="Copy_onnx_initializer_node_1719/Output_0/Data__const" type="Const" version="opset1">
			<data element_type="i64" offset="3762930" shape="1" size="8"/>
			<output>
				<port id="1" precision="I64">
					<dim>1</dim>
				</port>
			</output>
		</layer>
		<layer id="372" name="Div_402" type="Divide" version="opset1">
			<input>
				<port id="0">
					<dim>1</dim>
				</port>
				<port id="1">
					<dim>1</dim>
				</port>
			</input>
			<output>
				<port id="2" precision="I64">
					<dim>1</dim>
				</port>
			</output>
		</layer>
		<layer id="373" name="ConstantOfShape_403/Broadcast" type="Broadcast" version="opset3">
			<data mode="numpy"/>
			<input>
				<port id="0">
					<dim>1</dim>
				</port>
				<port id="1">
					<dim>1</dim>
				</port>
			</input>
			<output>
				<port id="2" precision="FP16">
					<dim>52</dim>
				</port>
			</output>
		</layer>
		<layer id="374" name="NonZero_404" type="NonZero" version="opset3">
			<data output_type="i64"/>
			<input>
				<port id="0">
					<dim>52</dim>
				</port>
			</input>
			<output>
				<port id="1" precision="I64">
					<dim>1</dim>
					<dim>52</dim>
				</port>
			</output>
…
		<edge from-layer="1397" from-port="1" to-layer="1398" to-port="1"/>
		<edge from-layer="1398" from-port="2" to-layer="1400" to-port="0"/>
		<edge from-layer="1399" from-port="1" to-layer="1400" to-port="1"/>
		<edge from-layer="1390" from-port="2" to-layer="1401" to-port="0"/>
		<edge from-layer="1400" from-port="2" to-layer="1401" to-port="1"/>
		<edge from-layer="1401" from-port="2" to-layer="1403" to-port="0"/>
		<edge from-layer="1402" from-port="1" to-layer="1403" to-port="1"/>
		<edge from-layer="1403" from-port="2" to-layer="1405" to-port="0"/>
		<edge from-layer="1404" from-port="1" to-layer="1405" to-port="1"/>
		<edge from-layer="1293" from-port="2" to-layer="1408" to-port="0"/>
		<edge from-layer="1406" from-port="1" to-layer="1408" to-port="1"/>
		<edge from-layer="1407" from-port="1" to-layer="1408" to-port="2"/>
		<edge from-layer="1340" from-port="2" to-layer="1411" to-port="0"/>
		<edge from-layer="1409" from-port="1" to-layer="1411" to-port="1"/>
		<edge from-layer="1410" from-port="1" to-layer="1411" to-port="2"/>
		<edge from-layer="1408" from-port="3" to-layer="1412" to-port="0"/>
		<edge from-layer="1411" from-port="3" to-layer="1412" to-port="1"/>
		<edge from-layer="1412" from-port="2" to-layer="1414" to-port="0"/>
		<edge from-layer="1413" from-port="1" to-layer="1414" to-port="1"/>
		<edge from-layer="1412" from-port="2" to-layer="1416" to-port="0"/>
		<edge from-layer="1415" from-port="1" to-layer="1417" to-port="0"/>
		<edge from-layer="1416" from-port="1" to-layer="1417" to-port="1"/>
		<edge from-layer="1417" from-port="2" to-layer="1419" to-port="0"/>
		<edge from-layer="1418" from-port="1" to-layer="1419" to-port="1"/>
		<edge from-layer="1414" from-port="2" to-layer="1420" to-port="0"/>
		<edge from-layer="1419" from-port="2" to-layer="1420" to-port="1"/>
		<edge from-layer="1420" from-port="2" to-layer="1422" to-port="0"/>
		<edge from-layer="1421" from-port="1" to-layer="1422" to-port="1"/>
		<edge from-layer="1422" from-port="2" to-layer="1424" to-port="0"/>
		<edge from-layer="1423" from-port="1" to-layer="1424" to-port="1"/>
		<edge from-layer="471" from-port="4" to-layer="1427" to-port="0"/>
		<edge from-layer="1425" from-port="1" to-layer="1427" to-port="1"/>
		<edge from-layer="1426" from-port="1" to-layer="1427" to-port="2"/>
		<edge from-layer="1427" from-port="3" to-layer="1428" to-port="0"/>
		<edge from-layer="1428" from-port="1" to-layer="1430" to-port="0"/>
		<edge from-layer="1429" from-port="1" to-layer="1430" to-port="1"/>
		<edge from-layer="1422" from-port="2" to-layer="1431" to-port="0"/>
		<edge from-layer="1430" from-port="2" to-layer="1432" to-port="0"/>
		<edge from-layer="1431" from-port="1" to-layer="1432" to-port="1"/>
		<edge from-layer="1432" from-port="2" to-layer="1434" to-port="0"/>
		<edge from-layer="1433" from-port="1" to-layer="1434" to-port="1"/>
		<edge from-layer="1424" from-port="2" to-layer="1435" to-port="0"/>
		<edge from-layer="1434" from-port="2" to-layer="1435" to-port="1"/>
		<edge from-layer="1435" from-port="2" to-layer="1437" to-port="0"/>
		<edge from-layer="1436" from-port="1" to-layer="1437" to-port="1"/>
		<edge from-layer="1437" from-port="2" to-layer="1439" to-port="0"/>
		<edge from-layer="1438" from-port="1" to-layer="1439" to-port="1"/>
		<edge from-layer="1293" from-port="2" to-layer="1442" to-port="0"/>
		<edge from-layer="1440" from-port="1" to-layer="1442" to-port="1"/>
		<edge from-layer="1441" from-port="1" to-layer="1442" to-port="2"/>
		<edge from-layer="1340" from-port="2" to-layer="1445" to-port="0"/>
		<edge from-layer="1443" from-port="1" to-layer="1445" to-port="1"/>
		<edge from-layer="1444" from-port="1" to-layer="1445" to-port="2"/>
		<edge from-layer="1442" from-port="3" to-layer="1446" to-port="0"/>
		<edge from-layer="1445" from-port="3" to-layer="1446" to-port="1"/>
		<edge from-layer="1446" from-port="2" to-layer="1448" to-port="0"/>
		<edge from-layer="1447" from-port="1" to-layer="1448" to-port="1"/>
		<edge from-layer="1446" from-port="2" to-layer="1450" to-port="0"/>
		<edge from-layer="1449" from-port="1" to-layer="1451" to-port="0"/>
		<edge from-layer="1450" from-port="1" to-layer="1451" to-port="1"/>
		<edge from-layer="1451" from-port="2" to-layer="1453" to-port="0"/>
		<edge from-layer="1452" from-port="1" to-layer="1453" to-port="1"/>
		<edge from-layer="1448" from-port="2" to-layer="1454" to-port="0"/>
		<edge from-layer="1453" from-port="2" to-layer="1454" to-port="1"/>
		<edge from-layer="1454" from-port="2" to-layer="1456" to-port="0"/>
		<edge from-layer="1455" from-port="1" to-layer="1456" to-port="1"/>
		<edge from-layer="1456" from-port="2" to-layer="1458" to-port="0"/>
		<edge from-layer="1457" from-port="1" to-layer="1458" to-port="1"/>
		<edge from-layer="471" from-port="4" to-layer="1461" to-port="0"/>
		<edge from-layer="1459" from-port="1" to-layer="1461" to-port="1"/>
		<edge from-layer="1460" from-port="1" to-layer="1461" to-port="2"/>
		<edge from-layer="1461" from-port="3" to-layer="1462" to-port="0"/>
		<edge from-layer="1462" from-port="1" to-layer="1464" to-port="0"/>
		<edge from-layer="1463" from-port="1" to-layer="1464" to-port="1"/>
		<edge from-layer="1456" from-port="2" to-layer="1465" to-port="0"/>
		<edge from-layer="1464" from-port="2" to-layer="1466" to-port="0"/>
		<edge from-layer="1465" from-port="1" to-layer="1466" to-port="1"/>
		<edge from-layer="1466" from-port="2" to-layer="1468" to-port="0"/>
		<edge from-layer="1467" from-port="1" to-layer="1468" to-port="1"/>
		<edge from-layer="1458" from-port="2" to-layer="1469" to-port="0"/>
		<edge from-layer="1468" from-port="2" to-layer="1469" to-port="1"/>
		<edge from-layer="1469" from-port="2" to-layer="1471" to-port="0"/>
		<edge from-layer="1470" from-port="1" to-layer="1471" to-port="1"/>
		<edge from-layer="1471" from-port="2" to-layer="1473" to-port="0"/>
		<edge from-layer="1472" from-port="1" to-layer="1473" to-port="1"/>
		<edge from-layer="1371" from-port="2" to-layer="1474" to-port="0"/>
		<edge from-layer="1405" from-port="2" to-layer="1474" to-port="1"/>
		<edge from-layer="1439" from-port="2" to-layer="1474" to-port="2"/>
		<edge from-layer="1473" from-port="2" to-layer="1474" to-port="3"/>
		<edge from-layer="1184" from-port="2" to-layer="1476" to-port="0"/>
		<edge from-layer="1476" from-port="1" to-layer="1478" to-port="0"/>
		<edge from-layer="1477" from-port="1" to-layer="1478" to-port="1"/>
		<edge from-layer="1478" from-port="2" to-layer="1480" to-port="0"/>
		<edge from-layer="1479" from-port="1" to-layer="1480" to-port="1"/>
		<edge from-layer="1480" from-port="2" to-layer="1482" to-port="0"/>
		<edge from-layer="1481" from-port="1" to-layer="1482" to-port="1"/>
		<edge from-layer="1482" from-port="2" to-layer="1483" to-port="0"/>
		<edge from-layer="1483" from-port="1" to-layer="1485" to-port="0"/>
		<edge from-layer="1484" from-port="1" to-layer="1485" to-port="1"/>
		<edge from-layer="1485" from-port="2" to-layer="1487" to-port="0"/>
		<edge from-layer="1486" from-port="1" to-layer="1487" to-port="1"/>
		<edge from-layer="1487" from-port="2" to-layer="1488" to-port="0"/>
		<edge from-layer="1488" from-port="1" to-layer="1490" to-port="0"/>
		<edge from-layer="1489" from-port="1" to-layer="1490" to-port="1"/>
		<edge from-layer="1490" from-port="2" to-layer="1491" to-port="0"/>
		<edge from-layer="1491" from-port="1" to-layer="1493" to-port="0"/>
		<edge from-layer="1492" from-port="1" to-layer="1493" to-port="1"/>
		<edge from-layer="1493" from-port="2" to-layer="1495" to-port="0"/>
		<edge from-layer="1494" from-port="1" to-layer="1495" to-port="1"/>
		<edge from-layer="1495" from-port="2" to-layer="1496" to-port="0"/>
		<edge from-layer="1496" from-port="1" to-layer="1498" to-port="0"/>
		<edge from-layer="1497" from-port="1" to-layer="1498" to-port="1"/>
		<edge from-layer="1498" from-port="2" to-layer="1499" to-port="0"/>
		<edge from-layer="1499" from-port="1" to-layer="1501" to-port="0"/>
		<edge from-layer="1500" from-port="1" to-layer="1501" to-port="1"/>
		<edge from-layer="1501" from-port="2" to-layer="1503" to-port="0"/>
		<edge from-layer="1502" from-port="1" to-layer="1503" to-port="1"/>
		<edge from-layer="1503" from-port="2" to-layer="1504" to-port="0"/>
		<edge from-layer="1504" from-port="1" to-layer="1506" to-port="0"/>
		<edge from-layer="1505" from-port="1" to-layer="1506" to-port="1"/>
		<edge from-layer="1506" from-port="2" to-layer="1507" to-port="0"/>
		<edge from-layer="1507" from-port="1" to-layer="1509" to-port="0"/>
		<edge from-layer="1508" from-port="1" to-layer="1509" to-port="1"/>
		<edge from-layer="1509" from-port="2" to-layer="1511" to-port="0"/>
		<edge from-layer="1510" from-port="1" to-layer="1511" to-port="1"/>
		<edge from-layer="1511" from-port="2" to-layer="1512" to-port="0"/>
		<edge from-layer="1512" from-port="1" to-layer="1514" to-port="0"/>
		<edge from-layer="1513" from-port="1" to-layer="1514" to-port="1"/>
		<edge from-layer="1514" from-port="2" to-layer="1516" to-port="0"/>
		<edge from-layer="1515" from-port="1" to-layer="1516" to-port="1"/>
		<edge from-layer="1516" from-port="2" to-layer="1517" to-port="0"/>
		<edge from-layer="1517" from-port="1" to-layer="1520" to-port="0"/>
		<edge from-layer="1518" from-port="1" to-layer="1520" to-port="1"/>
		<edge from-layer="1519" from-port="1" to-layer="1520" to-port="2"/>
		<edge from-layer="1520" from-port="3" to-layer="1522" to-port="0"/>
		<edge from-layer="1521" from-port="1" to-layer="1522" to-port="1"/>
		<edge from-layer="1522" from-port="2" to-layer="1524" to-port="0"/>
		<edge from-layer="1523" from-port="1" to-layer="1524" to-port="1"/>
		<edge from-layer="1524" from-port="2" to-layer="1526" to-port="0"/>
		<edge from-layer="1525" from-port="1" to-layer="1526" to-port="1"/>
		<edge from-layer="1526" from-port="2" to-layer="1528" to-port="0"/>
		<edge from-layer="1527" from-port="1" to-layer="1528" to-port="1"/>
		<edge from-layer="1475" from-port="1" to-layer="1529" to-port="0"/>
		<edge from-layer="1528" from-port="2" to-layer="1529" to-port="1"/>
		<edge from-layer="1529" from-port="2" to-layer="1530" to-port="0"/>
		<edge from-layer="1530" from-port="1" to-layer="1532" to-port="0"/>
		<edge from-layer="1531" from-port="1" to-layer="1532" to-port="1"/>
		<edge from-layer="1532" from-port="2" to-layer="1534" to-port="0"/>
		<edge from-layer="1533" from-port="1" to-layer="1534" to-port="1"/>
		<edge from-layer="1534" from-port="2" to-layer="1536" to-port="0"/>
		<edge from-layer="1535" from-port="1" to-layer="1536" to-port="1"/>
		<edge from-layer="1536" from-port="2" to-layer="1538" to-port="0"/>
		<edge from-layer="1537" from-port="1" to-layer="1538" to-port="1"/>
		<edge from-layer="1538" from-port="2" to-layer="1539" to-port="0"/>
		<edge from-layer="1539" from-port="1" to-layer="1541" to-port="0"/>
		<edge from-layer="1540" from-port="1" to-layer="1541" to-port="1"/>
		<edge from-layer="1541" from-port="2" to-layer="1543" to-port="0"/>
		<edge from-layer="1542" from-port="1" to-layer="1544" to-port="0"/>
		<edge from-layer="1543" from-port="1" to-layer="1544" to-port="1"/>
		<edge from-layer="1541" from-port="2" to-layer="1545" to-port="0"/>
		<edge from-layer="1544" from-port="2" to-layer="1545" to-port="1"/>
		<edge from-layer="1516" from-port="2" to-layer="1547" to-port="0"/>
		<edge from-layer="1547" from-port="1" to-layer="1550" to-port="0"/>
		<edge from-layer="1548" from-port="1" to-layer="1550" to-port="1"/>
		<edge from-layer="1549" from-port="1" to-layer="1550" to-port="2"/>
		<edge from-layer="1550" from-port="3" to-layer="1552" to-port="0"/>
		<edge from-layer="1551" from-port="1" to-layer="1552" to-port="1"/>
		<edge from-layer="1552" from-port="2" to-layer="1554" to-port="0"/>
		<edge from-layer="1553" from-port="1" to-layer="1554" to-port="1"/>
		<edge from-layer="1554" from-port="2" to-layer="1556" to-port="0"/>
		<edge from-layer="1555" from-port="1" to-layer="1556" to-port="1"/>
		<edge from-layer="1556" from-port="2" to-layer="1558" to-port="0"/>
		<edge from-layer="1557" from-port="1" to-layer="1558" to-port="1"/>
		<edge from-layer="1546" from-port="1" to-layer="1559" to-port="0"/>
		<edge from-layer="1558" from-port="2" to-layer="1559" to-port="1"/>
		<edge from-layer="1559" from-port="2" to-layer="1560" to-port="0"/>
		<edge from-layer="1560" from-port="1" to-layer="1562" to-port="0"/>
		<edge from-layer="1561" from-port="1" to-layer="1562" to-port="1"/>
		<edge from-layer="1562" from-port="2" to-layer="1564" to-port="0"/>
		<edge from-layer="1563" from-port="1" to-layer="1564" to-port="1"/>
		<edge from-layer="1564" from-port="2" to-layer="1566" to-port="0"/>
		<edge from-layer="1565" from-port="1" to-layer="1566" to-port="1"/>
		<edge from-layer="1566" from-port="2" to-layer="1568" to-port="0"/>
		<edge from-layer="1567" from-port="1" to-layer="1568" to-port="1"/>
		<edge from-layer="1568" from-port="2" to-layer="1569" to-port="0"/>
		<edge from-layer="1569" from-port="1" to-layer="1571" to-port="0"/>
		<edge from-layer="1570" from-port="1" to-layer="1571" to-port="1"/>
		<edge from-layer="1571" from-port="2" to-layer="1572" to-port="0"/>
		<edge from-layer="1572" from-port="1" to-layer="1573" to-port="0"/>
		<edge from-layer="1543" from-port="1" to-layer="1573" to-port="1"/>
		<edge from-layer="1545" from-port="2" to-layer="1574" to-port="0"/>
		<edge from-layer="1573" from-port="2" to-layer="1574" to-port="1"/>
		<edge from-layer="1574" from-port="2" to-layer="1576" to-port="0"/>
		<edge from-layer="1575" from-port="1" to-layer="1576" to-port="1"/>
		<edge from-layer="1576" from-port="2" to-layer="1578" to-port="0"/>
		<edge from-layer="1577" from-port="1" to-layer="1578" to-port="1"/>
		<edge from-layer="1572" from-port="1" to-layer="1580" to-port="0"/>
		<edge from-layer="1579" from-port="1" to-layer="1580" to-port="1"/>
		<edge from-layer="1571" from-port="2" to-layer="1581" to-port="0"/>
		<edge from-layer="1580" from-port="2" to-layer="1581" to-port="1"/>
		<edge from-layer="1581" from-port="2" to-layer="1582" to-port="0"/>
		<edge from-layer="1573" from-port="2" to-layer="1582" to-port="1"/>
		<edge from-layer="1582" from-port="2" to-layer="1584" to-port="0"/>
		<edge from-layer="1583" from-port="1" to-layer="1584" to-port="1"/>
		<edge from-layer="1584" from-port="2" to-layer="1586" to-port="0"/>
		<edge from-layer="1585" from-port="1" to-layer="1586" to-port="1"/>
		<edge from-layer="1578" from-port="2" to-layer="1587" to-port="0"/>
		<edge from-layer="1586" from-port="2" to-layer="1587" to-port="1"/>
		<edge from-layer="1587" from-port="2" to-layer="1589" to-port="0"/>
		<edge from-layer="1588" from-port="1" to-layer="1589" to-port="1"/>
		<edge from-layer="1589" from-port="2" to-layer="1592" to-port="0"/>
		<edge from-layer="1590" from-port="1" to-layer="1592" to-port="1"/>
		<edge from-layer="1591" from-port="1" to-layer="1592" to-port="2"/>
		<edge from-layer="1480" from-port="2" to-layer="1594" to-port="0"/>
		<edge from-layer="1593" from-port="1" to-layer="1594" to-port="1"/>
		<edge from-layer="1594" from-port="2" to-layer="1595" to-port="0"/>
		<edge from-layer="1595" from-port="1" to-layer="1597" to-port="0"/>
		<edge from-layer="1596" from-port="1" to-layer="1597" to-port="1"/>
		<edge from-layer="1597" from-port="2" to-layer="1599" to-port="0"/>
		<edge from-layer="1598" from-port="1" to-layer="1599" to-port="1"/>
		<edge from-layer="1599" from-port="2" to-layer="1600" to-port="0"/>
		<edge from-layer="1600" from-port="1" to-layer="1602" to-port="0"/>
		<edge from-layer="1601" from-port="1" to-layer="1602" to-port="1"/>
		<edge from-layer="1602" from-port="2" to-layer="1603" to-port="0"/>
		<edge from-layer="1603" from-port="1" to-layer="1605" to-port="0"/>
		<edge from-layer="1604" from-port="1" to-layer="1605" to-port="1"/>
		<edge from-layer="1605" from-port="2" to-layer="1607" to-port="0"/>
		<edge from-layer="1606" from-port="1" to-layer="1607" to-port="1"/>
		<edge from-layer="1607" from-port="2" to-layer="1608" to-port="0"/>
		<edge from-layer="1608" from-port="1" to-layer="1610" to-port="0"/>
		<edge from-layer="1609" from-port="1" to-layer="1610" to-port="1"/>
		<edge from-layer="1610" from-port="2" to-layer="1611" to-port="0"/>
		<edge from-layer="1611" from-port="1" to-layer="1613" to-port="0"/>
		<edge from-layer="1612" from-port="1" to-layer="1613" to-port="1"/>
		<edge from-layer="1613" from-port="2" to-layer="1615" to-port="0"/>
		<edge from-layer="1614" from-port="1" to-layer="1615" to-port="1"/>
		<edge from-layer="1615" from-port="2" to-layer="1616" to-port="0"/>
		<edge from-layer="1616" from-port="1" to-layer="1618" to-port="0"/>
		<edge from-layer="1617" from-port="1" to-layer="1618" to-port="1"/>
		<edge from-layer="1618" from-port="2" to-layer="1619" to-port="0"/>
		<edge from-layer="1619" from-port="1" to-layer="1621" to-port="0"/>
		<edge from-layer="1620" from-port="1" to-layer="1621" to-port="1"/>
		<edge from-layer="1621" from-port="2" to-layer="1623" to-port="0"/>
		<edge from-layer="1622" from-port="1" to-layer="1623" to-port="1"/>
		<edge from-layer="1623" from-port="2" to-layer="1624" to-port="0"/>
		<edge from-layer="1624" from-port="1" to-layer="1626" to-port="0"/>
		<edge from-layer="1625" from-port="1" to-layer="1626" to-port="1"/>
		<edge from-layer="1626" from-port="2" to-layer="1628" to-port="0"/>
		<edge from-layer="1627" from-port="1" to-layer="1628" to-port="1"/>
		<edge from-layer="1628" from-port="2" to-layer="1629" to-port="0"/>
		<edge from-layer="1629" from-port="1" to-layer="1632" to-port="0"/>
		<edge from-layer="1630" from-port="1" to-layer="1632" to-port="1"/>
		<edge from-layer="1631" from-port="1" to-layer="1632" to-port="2"/>
		<edge from-layer="1632" from-port="3" to-layer="1634" to-port="0"/>
		<edge from-layer="1633" from-port="1" to-layer="1634" to-port="1"/>
		<edge from-layer="1634" from-port="2" to-layer="1636" to-port="0"/>
		<edge from-layer="1635" from-port="1" to-layer="1636" to-port="1"/>
		<edge from-layer="1636" from-port="2" to-layer="1639" to-port="0"/>
		<edge from-layer="1637" from-port="1" to-layer="1639" to-port="1"/>
		<edge from-layer="1638" from-port="1" to-layer="1639" to-port="2"/>
		<edge from-layer="1592" from-port="3" to-layer="1640" to-port="0"/>
		<edge from-layer="1639" from-port="3" to-layer="1640" to-port="1"/>
		<edge from-layer="1640" from-port="2" to-layer="1642" to-port="0"/>
		<edge from-layer="1641" from-port="1" to-layer="1642" to-port="1"/>
		<edge from-layer="1640" from-port="2" to-layer="1644" to-port="0"/>
		<edge from-layer="1643" from-port="1" to-layer="1645" to-port="0"/>
		<edge from-layer="1644" from-port="1" to-layer="1645" to-port="1"/>
		<edge from-layer="1645" from-port="2" to-layer="1647" to-port="0"/>
		<edge from-layer="1646" from-port="1" to-layer="1647" to-port="1"/>
		<edge from-layer="1642" from-port="2" to-layer="1648" to-port="0"/>
		<edge from-layer="1647" from-port="2" to-layer="1648" to-port="1"/>
		<edge from-layer="1648" from-port="2" to-layer="1650" to-port="0"/>
		<edge from-layer="1649" from-port="1" to-layer="1650" to-port="1"/>
		<edge from-layer="1650" from-port="2" to-layer="1652" to-port="0"/>
		<edge from-layer="1651" from-port="1" to-layer="1652" to-port="1"/>
		<edge from-layer="471" from-port="4" to-layer="1655" to-port="0"/>
		<edge from-layer="1653" from-port="1" to-layer="1655" to-port="1"/>
		<edge from-layer="1654" from-port="1" to-layer="1655" to-port="2"/>
		<edge from-layer="1655" from-port="3" to-layer="1656" to-port="0"/>
		<edge from-layer="1656" from-port="1" to-layer="1658" to-port="0"/>
		<edge from-layer="1657" from-port="1" to-layer="1658" to-port="1"/>
		<edge from-layer="1650" from-port="2" to-layer="1659" to-port="0"/>
		<edge from-layer="1658" from-port="2" to-layer="1660" to-port="0"/>
		<edge from-layer="1659" from-port="1" to-layer="1660" to-port="1"/>
		<edge from-layer="1660" from-port="2" to-layer="1662" to-port="0"/>
		<edge from-layer="1661" from-port="1" to-layer="1662" to-port="1"/>
		<edge from-layer="1652" from-port="2" to-layer="1663" to-port="0"/>
		<edge from-layer="1662" from-port="2" to-layer="1663" to-port="1"/>
		<edge from-layer="1663" from-port="2" to-layer="1665" to-port="0"/>
		<edge from-layer="1664" from-port="1" to-layer="1665" to-port="1"/>
		<edge from-layer="1665" from-port="2" to-layer="1667" to-port="0"/>
		<edge from-layer="1666" from-port="1" to-layer="1667" to-port="1"/>
		<edge from-layer="1589" from-port="2" to-layer="1670" to-port="0"/>
		<edge from-layer="1668" from-port="1" to-layer="1670" to-port="1"/>
		<edge from-layer="1669" from-port="1" to-layer="1670" to-port="2"/>
		<edge from-layer="1636" from-port="2" to-layer="1673" to-port="0"/>
		<edge from-layer="1671" from-port="1" to-layer="1673" to-port="1"/>
		<edge from-layer="1672" from-port="1" to-layer="1673" to-port="2"/>
		<edge from-layer="1670" from-port="3" to-layer="1674" to-port="0"/>
		<edge from-layer="1673" from-port="3" to-layer="1674" to-port="1"/>
		<edge from-layer="1674" from-port="2" to-layer="1676" to-port="0"/>
		<edge from-layer="1675" from-port="1" to-layer="1676" to-port="1"/>
		<edge from-layer="1674" from-port="2" to-layer="1678" to-port="0"/>
		<edge from-layer="1677" from-port="1" to-layer="1679" to-port="0"/>
		<edge from-layer="1678" from-port="1" to-layer="1679" to-port="1"/>
		<edge from-layer="1679" from-port="2" to-layer="1681" to-port="0"/>
		<edge from-layer="1680" from-port="1" to-layer="1681" to-port="1"/>
		<edge from-layer="1676" from-port="2" to-layer="1682" to-port="0"/>
		<edge from-layer="1681" from-port="2" to-layer="1682" to-port="1"/>
		<edge from-layer="1682" from-port="2" to-layer="1684" to-port="0"/>
		<edge from-layer="1683" from-port="1" to-layer="1684" to-port="1"/>
		<edge from-layer="1684" from-port="2" to-layer="1686" to-port="0"/>
		<edge from-layer="1685" from-port="1" to-layer="1686" to-port="1"/>
		<edge from-layer="471" from-port="4" to-layer="1689" to-port="0"/>
		<edge from-layer="1687" from-port="1" to-layer="1689" to-port="1"/>
		<edge from-layer="1688" from-port="1" to-layer="1689" to-port="2"/>
		<edge from-layer="1689" from-port="3" to-layer="1690" to-port="0"/>
		<edge from-layer="1690" from-port="1" to-layer="1692" to-port="0"/>
		<edge from-layer="1691" from-port="1" to-layer="1692" to-port="1"/>
		<edge from-layer="1684" from-port="2" to-layer="1693" to-port="0"/>
		<edge from-layer="1692" from-port="2" to-layer="1694" to-port="0"/>
		<edge from-layer="1693" from-port="1" to-layer="1694" to-port="1"/>
		<edge from-layer="1694" from-port="2" to-layer="1696" to-port="0"/>
		<edge from-layer="1695" from-port="1" to-layer="1696" to-port="1"/>
		<edge from-layer="1686" from-port="2" to-layer="1697" to-port="0"/>
		<edge from-layer="1696" from-port="2" to-layer="1697" to-port="1"/>
		<edge from-layer="1697" from-port="2" to-layer="1699" to-port="0"/>
		<edge from-layer="1698" from-port="1" to-layer="1699" to-port="1"/>
		<edge from-layer="1699" from-port="2" to-layer="1701" to-port="0"/>
		<edge from-layer="1700" from-port="1" to-layer="1701" to-port="1"/>
		<edge from-layer="1589" from-port="2" to-layer="1704" to-port="0"/>
		<edge from-layer="1702" from-port="1" to-layer="1704" to-port="1"/>
		<edge from-layer="1703" from-port="1" to-layer="1704" to-port="2"/>
		<edge from-layer="1636" from-port="2" to-layer="1707" to-port="0"/>
		<edge from-layer="1705" from-port="1" to-layer="1707" to-port="1"/>
		<edge from-layer="1706" from-port="1" to-layer="1707" to-port="2"/>
		<edge from-layer="1704" from-port="3" to-layer="1708" to-port="0"/>
		<edge from-layer="1707" from-port="3" to-layer="1708" to-port="1"/>
		<edge from-layer="1708" from-port="2" to-layer="1710" to-port="0"/>
		<edge from-layer="1709" from-port="1" to-layer="1710" to-port="1"/>
		<edge from-layer="1708" from-port="2" to-layer="1712" to-port="0"/>
		<edge from-layer="1711" from-port="1" to-layer="1713" to-port="0"/>
		<edge from-layer="1712" from-port="1" to-layer="1713" to-port="1"/>
		<edge from-layer="1713" from-port="2" to-layer="1715" to-port="0"/>
		<edge from-layer="1714" from-port="1" to-layer="1715" to-port="1"/>
		<edge from-layer="1710" from-port="2" to-layer="1716" to-port="0"/>
		<edge from-layer="1715" from-port="2" to-layer="1716" to-port="1"/>
		<edge from-layer="1716" from-port="2" to-layer="1718" to-port="0"/>
		<edge from-layer="1717" from-port="1" to-layer="1718" to-port="1"/>
		<edge from-layer="1718" from-port="2" to-layer="1720" to-port="0"/>
		<edge from-layer="1719" from-port="1" to-layer="1720" to-port="1"/>
		<edge from-layer="471" from-port="4" to-layer="1723" to-port="0"/>
		<edge from-layer="1721" from-port="1" to-layer="1723" to-port="1"/>
		<edge from-layer="1722" from-port="1" to-layer="1723" to-port="2"/>
		<edge from-layer="1723" from-port="3" to-layer="1724" to-port="0"/>
		<edge from-layer="1724" from-port="1" to-layer="1726" to-port="0"/>
		<edge from-layer="1725" from-port="1" to-layer="1726" to-port="1"/>
		<edge from-layer="1718" from-port="2" to-layer="1727" to-port="0"/>
		<edge from-layer="1726" from-port="2" to-layer="1728" to-port="0"/>
		<edge from-layer="1727" from-port="1" to-layer="1728" to-port="1"/>
		<edge from-layer="1728" from-port="2" to-layer="1730" to-port="0"/>
		<edge from-layer="1729" from-port="1" to-layer="1730" to-port="1"/>
		<edge from-layer="1720" from-port="2" to-layer="1731" to-port="0"/>
		<edge from-layer="1730" from-port="2" to-layer="1731" to-port="1"/>
		<edge from-layer="1731" from-port="2" to-layer="1733" to-port="0"/>
		<edge from-layer="1732" from-port="1" to-layer="1733" to-port="1"/>
		<edge from-layer="1733" from-port="2" to-layer="1735" to-port="0"/>
		<edge from-layer="1734" from-port="1" to-layer="1735" to-port="1"/>
		<edge from-layer="1589" from-port="2" to-layer="1738" to-port="0"/>
		<edge from-layer="1736" from-port="1" to-layer="1738" to-port="1"/>
		<edge from-layer="1737" from-port="1" to-layer="1738" to-port="2"/>
		<edge from-layer="1636" from-port="2" to-layer="1741" to-port="0"/>
		<edge from-layer="1739" from-port="1" to-layer="1741" to-port="1"/>
		<edge from-layer="1740" from-port="1" to-layer="1741" to-port="2"/>
		<edge from-layer="1738" from-port="3" to-layer="1742" to-port="0"/>
		<edge from-layer="1741" from-port="3" to-layer="1742" to-port="1"/>
		<edge from-layer="1742" from-port="2" to-layer="1744" to-port="0"/>
		<edge from-layer="1743" from-port="1" to-layer="1744" to-port="1"/>
		<edge from-layer="1742" from-port="2" to-layer="1746" to-port="0"/>
		<edge from-layer="1745" from-port="1" to-layer="1747" to-port="0"/>
		<edge from-layer="1746" from-port="1" to-layer="1747" to-port="1"/>
		<edge from-layer="1747" from-port="2" to-layer="1749" to-port="0"/>
		<edge from-layer="1748" from-port="1" to-layer="1749" to-port="1"/>
		<edge from-layer="1744" from-port="2" to-layer="1750" to-port="0"/>
		<edge from-layer="1749" from-port="2" to-layer="1750" to-port="1"/>
		<edge from-layer="1750" from-port="2" to-layer="1752" to-port="0"/>
		<edge from-layer="1751" from-port="1" to-layer="1752" to-port="1"/>
		<edge from-layer="1752" from-port="2" to-layer="1754" to-port="0"/>
		<edge from-layer="1753" from-port="1" to-layer="1754" to-port="1"/>
		<edge from-layer="471" from-port="4" to-layer="1757" to-port="0"/>
		<edge from-layer="1755" from-port="1" to-layer="1757" to-port="1"/>
		<edge from-layer="1756" from-port="1" to-layer="1757" to-port="2"/>
		<edge from-layer="1757" from-port="3" to-layer="1758" to-port="0"/>
		<edge from-layer="1758" from-port="1" to-layer="1760" to-port="0"/>
		<edge from-layer="1759" from-port="1" to-layer="1760" to-port="1"/>
		<edge from-layer="1752" from-port="2" to-layer="1761" to-port="0"/>
		<edge from-layer="1760" from-port="2" to-layer="1762" to-port="0"/>
		<edge from-layer="1761" from-port="1" to-layer="1762" to-port="1"/>
		<edge from-layer="1762" from-port="2" to-layer="1764" to-port="0"/>
		<edge from-layer="1763" from-port="1" to-layer="1764" to-port="1"/>
		<edge from-layer="1754" from-port="2" to-layer="1765" to-port="0"/>
		<edge from-layer="1764" from-port="2" to-layer="1765" to-port="1"/>
		<edge from-layer="1765" from-port="2" to-layer="1767" to-port="0"/>
		<edge from-layer="1766" from-port="1" to-layer="1767" to-port="1"/>
		<edge from-layer="1767" from-port="2" to-layer="1769" to-port="0"/>
		<edge from-layer="1768" from-port="1" to-layer="1769" to-port="1"/>
		<edge from-layer="1667" from-port="2" to-layer="1770" to-port="0"/>
		<edge from-layer="1701" from-port="2" to-layer="1770" to-port="1"/>
		<edge from-layer="1735" from-port="2" to-layer="1770" to-port="2"/>
		<edge from-layer="1769" from-port="2" to-layer="1770" to-port="3"/>
		<edge from-layer="589" from-port="4" to-layer="1771" to-port="0"/>
		<edge from-layer="884" from-port="4" to-layer="1771" to-port="1"/>
		<edge from-layer="1179" from-port="4" to-layer="1771" to-port="2"/>
		<edge from-layer="1474" from-port="4" to-layer="1771" to-port="3"/>
		<edge from-layer="1770" from-port="4" to-layer="1771" to-port="4"/>
		<edge from-layer="1771" from-port="5" to-layer="1773" to-port="0"/>
		<edge from-layer="1772" from-port="1" to-layer="1773" to-port="1"/>
		<edge from-layer="330" from-port="2" to-layer="1776" to-port="0"/>
		<edge from-layer="1774" from-port="1" to-layer="1776" to-port="1"/>
		<edge from-layer="1775" from-port="1" to-layer="1776" to-port="2"/>
		<edge from-layer="1776" from-port="3" to-layer="1778" to-port="0"/>
		<edge from-layer="1777" from-port="1" to-layer="1778" to-port="1"/>
		<edge from-layer="1778" from-port="2" to-layer="1780" to-port="0"/>
		<edge from-layer="1779" from-port="1" to-layer="1780" to-port="1"/>
		<edge from-layer="1780" from-port="2" to-layer="1781" to-port="0"/>
		<edge from-layer="630" from-port="2" to-layer="1784" to-port="0"/>
		<edge from-layer="1782" from-port="1" to-layer="1784" to-port="1"/>
		<edge from-layer="1783" from-port="1" to-layer="1784" to-port="2"/>
		<edge from-layer="1784" from-port="3" to-layer="1786" to-port="0"/>
		<edge from-layer="1785" from-port="1" to-layer="1786" to-port="1"/>
		<edge from-layer="1786" from-port="2" to-layer="1788" to-port="0"/>
		<edge from-layer="1787" from-port="1" to-layer="1788" to-port="1"/>
		<edge from-layer="1788" from-port="2" to-layer="1789" to-port="0"/>
		<edge from-layer="925" from-port="2" to-layer="1792" to-port="0"/>
		<edge from-layer="1790" from-port="1" to-layer="1792" to-port="1"/>
		<edge from-layer="1791" from-port="1" to-layer="1792" to-port="2"/>
		<edge from-layer="1792" from-port="3" to-layer="1794" to-port="0"/>
		<edge from-layer="1793" from-port="1" to-layer="1794" to-port="1"/>
		<edge from-layer="1794" from-port="2" to-layer="1796" to-port="0"/>
		<edge from-layer="1795" from-port="1" to-layer="1796" to-port="1"/>
		<edge from-layer="1796" from-port="2" to-layer="1797" to-port="0"/>
		<edge from-layer="1220" from-port="2" to-layer="1800" to-port="0"/>
		<edge from-layer="1798" from-port="1" to-layer="1800" to-port="1"/>
		<edge from-layer="1799" from-port="1" to-layer="1800" to-port="2"/>
		<edge from-layer="1800" from-port="3" to-layer="1802" to-port="0"/>
		<edge from-layer="1801" from-port="1" to-layer="1802" to-port="1"/>
		<edge from-layer="1802" from-port="2" to-layer="1804" to-port="0"/>
		<edge from-layer="1803" from-port="1" to-layer="1804" to-port="1"/>
		<edge from-layer="1804" from-port="2" to-layer="1805" to-port="0"/>
		<edge from-layer="1516" from-port="2" to-layer="1808" to-port="0"/>
		<edge from-layer="1806" from-port="1" to-layer="1808" to-port="1"/>
		<edge from-layer="1807" from-port="1" to-layer="1808" to-port="2"/>
		<edge from-layer="1808" from-port="3" to-layer="1810" to-port="0"/>
		<edge from-layer="1809" from-port="1" to-layer="1810" to-port="1"/>
		<edge from-layer="1810" from-port="2" to-layer="1812" to-port="0"/>
		<edge from-layer="1811" from-port="1" to-layer="1812" to-port="1"/>
		<edge from-layer="1812" from-port="2" to-layer="1813" to-port="0"/>
		<edge from-layer="1781" from-port="1" to-layer="1814" to-port="0"/>
		<edge from-layer="1789" from-port="1" to-layer="1814" to-port="1"/>
		<edge from-layer="1797" from-port="1" to-layer="1814" to-port="2"/>
		<edge from-layer="1805" from-port="1" to-layer="1814" to-port="3"/>
		<edge from-layer="1813" from-port="1" to-layer="1814" to-port="4"/>
		<edge from-layer="326" from-port="1" to-layer="1816" to-port="0"/>
		<edge from-layer="1815" from-port="1" to-layer="1816" to-port="1"/>
		<edge from-layer="1816" from-port="2" to-layer="1818" to-port="0"/>
		<edge from-layer="1817" from-port="1" to-layer="1818" to-port="1"/>
		<edge from-layer="1818" from-port="2" to-layer="1821" to-port="0"/>
		<edge from-layer="1819" from-port="1" to-layer="1821" to-port="1"/>
		<edge from-layer="1820" from-port="1" to-layer="1821" to-port="2"/>
		<edge from-layer="1821" from-port="3" to-layer="1823" to-port="0"/>
		<edge from-layer="1822" from-port="1" to-layer="1823" to-port="1"/>
		<edge from-layer="1823" from-port="2" to-layer="1825" to-port="0"/>
		<edge from-layer="1824" from-port="1" to-layer="1825" to-port="1"/>
		<edge from-layer="1825" from-port="2" to-layer="1826" to-port="0"/>
		<edge from-layer="626" from-port="1" to-layer="1828" to-port="0"/>
		<edge from-layer="1827" from-port="1" to-layer="1828" to-port="1"/>
		<edge from-layer="1828" from-port="2" to-layer="1830" to-port="0"/>
		<edge from-layer="1829" from-port="1" to-layer="1830" to-port="1"/>
		<edge from-layer="1830" from-port="2" to-layer="1833" to-port="0"/>
		<edge from-layer="1831" from-port="1" to-layer="1833" to-port="1"/>
		<edge from-layer="1832" from-port="1" to-layer="1833" to-port="2"/>
		<edge from-layer="1833" from-port="3" to-layer="1835" to-port="0"/>
		<edge from-layer="1834" from-port="1" to-layer="1835" to-port="1"/>
		<edge from-layer="1835" from-port="2" to-layer="1837" to-port="0"/>
		<edge from-layer="1836" from-port="1" to-layer="1837" to-port="1"/>
		<edge from-layer="1837" from-port="2" to-layer="1838" to-port="0"/>
		<edge from-layer="921" from-port="1" to-layer="1840" to-port="0"/>
		<edge from-layer="1839" from-port="1" to-layer="1840" to-port="1"/>
		<edge from-layer="1840" from-port="2" to-layer="1842" to-port="0"/>
		<edge from-layer="1841" from-port="1" to-layer="1842" to-port="1"/>
		<edge from-layer="1842" from-port="2" to-layer="1845" to-port="0"/>
		<edge from-layer="1843" from-port="1" to-layer="1845" to-port="1"/>
		<edge from-layer="1844" from-port="1" to-layer="1845" to-port="2"/>
		<edge from-layer="1845" from-port="3" to-layer="1847" to-port="0"/>
		<edge from-layer="1846" from-port="1" to-layer="1847" to-port="1"/>
		<edge from-layer="1847" from-port="2" to-layer="1849" to-port="0"/>
		<edge from-layer="1848" from-port="1" to-layer="1849" to-port="1"/>
		<edge from-layer="1849" from-port="2" to-layer="1850" to-port="0"/>
		<edge from-layer="1216" from-port="1" to-layer="1852" to-port="0"/>
		<edge from-layer="1851" from-port="1" to-layer="1852" to-port="1"/>
		<edge from-layer="1852" from-port="2" to-layer="1854" to-port="0"/>
		<edge from-layer="1853" from-port="1" to-layer="1854" to-port="1"/>
		<edge from-layer="1854" from-port="2" to-layer="1857" to-port="0"/>
		<edge from-layer="1855" from-port="1" to-layer="1857" to-port="1"/>
		<edge from-layer="1856" from-port="1" to-layer="1857" to-port="2"/>
		<edge from-layer="1857" from-port="3" to-layer="1859" to-port="0"/>
		<edge from-layer="1858" from-port="1" to-layer="1859" to-port="1"/>
		<edge from-layer="1859" from-port="2" to-layer="1861" to-port="0"/>
		<edge from-layer="1860" from-port="1" to-layer="1861" to-port="1"/>
		<edge from-layer="1861" from-port="2" to-layer="1862" to-port="0"/>
		<edge from-layer="1512" from-port="1" to-layer="1864" to-port="0"/>
		<edge from-layer="1863" from-port="1" to-layer="1864" to-port="1"/>
		<edge from-layer="1864" from-port="2" to-layer="1866" to-port="0"/>
		<edge from-layer="1865" from-port="1" to-layer="1866" to-port="1"/>
		<edge from-layer="1866" from-port="2" to-layer="1869" to-port="0"/>
		<edge from-layer="1867" from-port="1" to-layer="1869" to-port="1"/>
		<edge from-layer="1868" from-port="1" to-layer="1869" to-port="2"/>
		<edge from-layer="1869" from-port="3" to-layer="1871" to-port="0"/>
		<edge from-layer="1870" from-port="1" to-layer="1871" to-port="1"/>
		<edge from-layer="1871" from-port="2" to-layer="1873" to-port="0"/>
		<edge from-layer="1872" from-port="1" to-layer="1873" to-port="1"/>
		<edge from-layer="1873" from-port="2" to-layer="1874" to-port="0"/>
		<edge from-layer="1826" from-port="1" to-layer="1875" to-port="0"/>
		<edge from-layer="1838" from-port="1" to-layer="1875" to-port="1"/>
		<edge from-layer="1850" from-port="1" to-layer="1875" to-port="2"/>
		<edge from-layer="1862" from-port="1" to-layer="1875" to-port="3"/>
		<edge from-layer="1874" from-port="1" to-layer="1875" to-port="4"/>
		<edge from-layer="1875" from-port="5" to-layer="1876" to-port="0"/>
		<edge from-layer="1876" from-port="1" to-layer="1879" to-port="0"/>
		<edge from-layer="1877" from-port="1" to-layer="1879" to-port="1"/>
		<edge from-layer="1878" from-port="1" to-layer="1879" to-port="2"/>
		<edge from-layer="1879" from-port="3" to-layer="1881" to-port="0"/>
		<edge from-layer="1880" from-port="1" to-layer="1881" to-port="1"/>
		<edge from-layer="1881" from-port="2" to-layer="1883" to-port="0"/>
		<edge from-layer="1882" from-port="1" to-layer="1883" to-port="1"/>
		<edge from-layer="1875" from-port="5" to-layer="1884" to-port="0"/>
		<edge from-layer="1883" from-port="2" to-layer="1884" to-port="1"/>
		<edge from-layer="1814" from-port="5" to-layer="1885" to-port="0"/>
		<edge from-layer="1884" from-port="2" to-layer="1886" to-port="0"/>
		<edge from-layer="1885" from-port="1" to-layer="1886" to-port="1"/>
		<edge from-layer="1814" from-port="5" to-layer="1887" to-port="0"/>
		<edge from-layer="1886" from-port="2" to-layer="1887" to-port="1"/>
		<edge from-layer="1887" from-port="2" to-layer="1888" to-port="0"/>
		<edge from-layer="1888" from-port="1" to-layer="1891" to-port="0"/>
		<edge from-layer="1889" from-port="1" to-layer="1891" to-port="1"/>
		<edge from-layer="1890" from-port="1" to-layer="1891" to-port="2"/>
		<edge from-layer="1891" from-port="3" to-layer="1893" to-port="0"/>
		<edge from-layer="1892" from-port="1" to-layer="1893" to-port="1"/>
		<edge from-layer="1887" from-port="2" to-layer="1894" to-port="0"/>
		<edge from-layer="1894" from-port="1" to-layer="1897" to-port="0"/>
		<edge from-layer="1895" from-port="1" to-layer="1897" to-port="1"/>
		<edge from-layer="1896" from-port="1" to-layer="1897" to-port="2"/>
		<edge from-layer="1897" from-port="3" to-layer="1899" to-port="0"/>
		<edge from-layer="1898" from-port="1" to-layer="1899" to-port="1"/>
		<edge from-layer="1893" from-port="2" to-layer="1901" to-port="0"/>
		<edge from-layer="1899" from-port="2" to-layer="1901" to-port="1"/>
		<edge from-layer="1900" from-port="1" to-layer="1901" to-port="2"/>
		<edge from-layer="1901" from-port="3" to-layer="1903" to-port="0"/>
		<edge from-layer="1902" from-port="1" to-layer="1903" to-port="1"/>
		<edge from-layer="1903" from-port="2" to-layer="1905" to-port="0"/>
		<edge from-layer="1904" from-port="1" to-layer="1906" to-port="0"/>
		<edge from-layer="1905" from-port="1" to-layer="1906" to-port="1"/>
		<edge from-layer="1906" from-port="2" to-layer="1907" to-port="0"/>
		<edge from-layer="1903" from-port="2" to-layer="1908" to-port="0"/>
		<edge from-layer="1907" from-port="1" to-layer="1908" to-port="1"/>
		<edge from-layer="1908" from-port="2" to-layer="1909" to-port="0"/>
		<edge from-layer="1906" from-port="2" to-layer="1909" to-port="1"/>
		<edge from-layer="1903" from-port="2" to-layer="1909" to-port="2"/>
		<edge from-layer="1773" from-port="2" to-layer="1910" to-port="0"/>
		<edge from-layer="1909" from-port="3" to-layer="1910" to-port="1"/>
		<edge from-layer="1910" from-port="2" to-layer="1912" to-port="0"/>
		<edge from-layer="1911" from-port="1" to-layer="1912" to-port="1"/>
		<edge from-layer="1897" from-port="3" to-layer="1915" to-port="0"/>
		<edge from-layer="1914" from-port="1" to-layer="1915" to-port="1"/>
		<edge from-layer="1913" from-port="1" to-layer="1916" to-port="0"/>
		<edge from-layer="1915" from-port="2" to-layer="1916" to-port="1"/>
		<edge from-layer="1916" from-port="2" to-layer="1917" to-port="0"/>
		<edge from-layer="1917" from-port="1" to-layer="1919" to-port="0"/>
		<edge from-layer="1918" from-port="1" to-layer="1919" to-port="1"/>
		<edge from-layer="1919" from-port="2" to-layer="1921" to-port="0"/>
		<edge from-layer="1920" from-port="1" to-layer="1921" to-port="1"/>
		<edge from-layer="1921" from-port="2" to-layer="1923" to-port="0"/>
		<edge from-layer="1922" from-port="1" to-layer="1923" to-port="1"/>
		<edge from-layer="1887" from-port="2" to-layer="1924" to-port="0"/>
		<edge from-layer="1923" from-port="2" to-layer="1925" to-port="0"/>
		<edge from-layer="1924" from-port="1" to-layer="1925" to-port="1"/>
		<edge from-layer="1925" from-port="2" to-layer="1927" to-port="0"/>
		<edge from-layer="1926" from-port="1" to-layer="1927" to-port="1"/>
		<edge from-layer="1927" from-port="2" to-layer="1928" to-port="0"/>
		<edge from-layer="1912" from-port="2" to-layer="1930" to-port="0"/>
		<edge from-layer="1929" from-port="1" to-layer="1930" to-port="1"/>
		<edge from-layer="1930" from-port="2" to-layer="1932" to-port="0"/>
		<edge from-layer="1931" from-port="1" to-layer="1932" to-port="1"/>
		<edge from-layer="1932" from-port="2" to-layer="1934" to-port="0"/>
		<edge from-layer="1933" from-port="1" to-layer="1934" to-port="1"/>
		<edge from-layer="1928" from-port="1" to-layer="1935" to-port="0"/>
		<edge from-layer="1934" from-port="2" to-layer="1935" to-port="1"/>
		<edge from-layer="1935" from-port="2" to-layer="1937" to-port="0"/>
		<edge from-layer="1936" from-port="1" to-layer="1937" to-port="1"/>
		<edge from-layer="1912" from-port="2" to-layer="1938" to-port="0"/>
		<edge from-layer="1937" from-port="2" to-layer="1938" to-port="1"/>
		<edge from-layer="1887" from-port="2" to-layer="1940" to-port="0"/>
		<edge from-layer="1939" from-port="1" to-layer="1940" to-port="1"/>
		<edge from-layer="1940" from-port="2" to-layer="1942" to-port="0"/>
		<edge from-layer="1941" from-port="1" to-layer="1942" to-port="1"/>
		<edge from-layer="1938" from-port="2" to-layer="1943" to-port="0"/>
		<edge from-layer="1942" from-port="2" to-layer="1943" to-port="1"/>
		<edge from-layer="1943" from-port="2" to-layer="1946" to-port="0"/>
		<edge from-layer="1944" from-port="1" to-layer="1946" to-port="1"/>
		<edge from-layer="1945" from-port="1" to-layer="1946" to-port="2"/>
		<edge from-layer="1946" from-port="4" to-layer="1948" to-port="0"/>
		<edge from-layer="1947" from-port="1" to-layer="1948" to-port="1"/>
		<edge from-layer="1948" from-port="2" to-layer="1950" to-port="0"/>
		<edge from-layer="1949" from-port="1" to-layer="1950" to-port="1"/>
		<edge from-layer="1946" from-port="3" to-layer="1952" to-port="0"/>
		<edge from-layer="1951" from-port="1" to-layer="1952" to-port="1"/>
		<edge from-layer="1952" from-port="2" to-layer="1956" to-port="0"/>
		<edge from-layer="1948" from-port="2" to-layer="1956" to-port="1"/>
		<edge from-layer="1953" from-port="1" to-layer="1956" to-port="2"/>
		<edge from-layer="1954" from-port="1" to-layer="1956" to-port="3"/>
		<edge from-layer="1955" from-port="1" to-layer="1956" to-port="4"/>
		<edge from-layer="1956" from-port="5" to-layer="1960" to-port="0"/>
		<edge from-layer="1957" from-port="1" to-layer="1960" to-port="1"/>
		<edge from-layer="1958" from-port="1" to-layer="1960" to-port="2"/>
		<edge from-layer="1959" from-port="1" to-layer="1960" to-port="3"/>
		<edge from-layer="1960" from-port="4" to-layer="1962" to-port="0"/>
		<edge from-layer="1961" from-port="1" to-layer="1962" to-port="1"/>
		<edge from-layer="1962" from-port="2" to-layer="1963" to-port="0"/>
		<edge from-layer="1950" from-port="2" to-layer="1965" to-port="0"/>
		<edge from-layer="1963" from-port="1" to-layer="1965" to-port="1"/>
		<edge from-layer="1964" from-port="1" to-layer="1965" to-port="2"/>
		<edge from-layer="1965" from-port="3" to-layer="1966" to-port="0"/>
		<edge from-layer="1966" from-port="1" to-layer="1969" to-port="0"/>
		<edge from-layer="1967" from-port="1" to-layer="1969" to-port="1"/>
		<edge from-layer="1968" from-port="1" to-layer="1969" to-port="2"/>
		<edge from-layer="1969" from-port="3" to-layer="1971" to-port="0"/>
		<edge from-layer="1970" from-port="1" to-layer="1971" to-port="1"/>
		<edge from-layer="1971" from-port="2" to-layer="1973" to-port="0"/>
		<edge from-layer="1972" from-port="1" to-layer="1973" to-port="1"/>
		<edge from-layer="1973" from-port="2" to-layer="1974" to-port="0"/>
		<edge from-layer="1965" from-port="3" to-layer="1975" to-port="0"/>
		<edge from-layer="1974" from-port="1" to-layer="1975" to-port="1"/>
		<edge from-layer="1975" from-port="2" to-layer="1976" to-port="0"/>
		<edge from-layer="1962" from-port="2" to-layer="1978" to-port="0"/>
		<edge from-layer="1975" from-port="3" to-layer="1978" to-port="1"/>
		<edge from-layer="1977" from-port="1" to-layer="1978" to-port="2"/>
		<edge from-layer="1978" from-port="3" to-layer="1979" to-port="0"/>
		<edge from-layer="1912" from-port="2" to-layer="1981" to-port="0"/>
		<edge from-layer="1979" from-port="1" to-layer="1981" to-port="1"/>
		<edge from-layer="1980" from-port="1" to-layer="1981" to-port="2"/>
		<edge from-layer="1978" from-port="3" to-layer="1982" to-port="0"/>
		<edge from-layer="1943" from-port="2" to-layer="1984" to-port="0"/>
		<edge from-layer="1982" from-port="1" to-layer="1984" to-port="1"/>
		<edge from-layer="1983" from-port="1" to-layer="1984" to-port="2"/>
		<edge from-layer="1984" from-port="3" to-layer="1988" to-port="0"/>
		<edge from-layer="1985" from-port="1" to-layer="1988" to-port="1"/>
		<edge from-layer="1986" from-port="1" to-layer="1988" to-port="2"/>
		<edge from-layer="1987" from-port="1" to-layer="1988" to-port="3"/>
		<edge from-layer="1988" from-port="4" to-layer="1990" to-port="0"/>
		<edge from-layer="1989" from-port="1" to-layer="1990" to-port="1"/>
		<edge from-layer="1990" from-port="2" to-layer="1992" to-port="0"/>
		<edge from-layer="1991" from-port="1" to-layer="1992" to-port="1"/>
		<edge from-layer="1981" from-port="3" to-layer="1993" to-port="0"/>
		<edge from-layer="1992" from-port="2" to-layer="1993" to-port="1"/>
		<edge from-layer="1978" from-port="3" to-layer="1994" to-port="0"/>
		<edge from-layer="1927" from-port="2" to-layer="1996" to-port="0"/>
		<edge from-layer="1994" from-port="1" to-layer="1996" to-port="1"/>
		<edge from-layer="1995" from-port="1" to-layer="1996" to-port="2"/>
		<edge from-layer="1996" from-port="3" to-layer="1997" to-port="0"/>
		<edge from-layer="1997" from-port="1" to-layer="1999" to-port="0"/>
		<edge from-layer="1998" from-port="1" to-layer="1999" to-port="1"/>
		<edge from-layer="1993" from-port="2" to-layer="2000" to-port="0"/>
		<edge from-layer="1999" from-port="2" to-layer="2000" to-port="1"/>
		<edge from-layer="2000" from-port="2" to-layer="2004" to-port="0"/>
		<edge from-layer="2001" from-port="1" to-layer="2004" to-port="1"/>
		<edge from-layer="2002" from-port="1" to-layer="2004" to-port="2"/>
		<edge from-layer="2003" from-port="1" to-layer="2004" to-port="3"/>
		<edge from-layer="2004" from-port="4" to-layer="2005" to-port="0"/>
		<edge from-layer="2000" from-port="2" to-layer="2008" to-port="0"/>
		<edge from-layer="2006" from-port="1" to-layer="2008" to-port="1"/>
		<edge from-layer="2007" from-port="1" to-layer="2008" to-port="2"/>
		<edge from-layer="2008" from-port="3" to-layer="2009" to-port="0"/>
		<edge from-layer="2009" from-port="1" to-layer="2011" to-port="0"/>
		<edge from-layer="2010" from-port="1" to-layer="2011" to-port="1"/>
		<edge from-layer="2011" from-port="2" to-layer="2012" to-port="0"/>
	</edges>
	<meta_data>
		<MO_version value="2021.1.0-1131-8e6d9470bbe"/>
		<cli_parameters>
			<caffe_parser_path value="DIR"/>
			<data_type value="FP16"/>
			<disable_nhwc_to_nchw value="False"/>
			<disable_omitting_optional value="False"/>
			<disable_resnet_optimization value="False"/>
			<disable_weights_compression value="False"/>
			<enable_concat_optimization value="False"/>
			<enable_flattening_nested_params value="False"/>
			<enable_ssd_gluoncv value="False"/>
			<extensions value="DIR"/>
			<framework value="onnx"/>
			<freeze_placeholder_with_value value="{}"/>
			<generate_deprecated_IR_V7 value="False"/>
			<input value="image"/>
			<input_model value="DIR/model.onnx"/>
			<input_model_is_text value="False"/>
			<input_shape value="[1,3,416,416]"/>
			<k value="DIR/CustomLayersMapping.xml"/>
			<keep_shape_ops value="True"/>
			<legacy_mxnet_model value="False"/>
			<log_level value="ERROR"/>
			<mean_scale_values value="{'image': {'mean': None, 'scale': array([255.])}}"/>
			<mean_values value="()"/>
			<model_name value="face-detection-0205"/>
			<output value="['boxes', 'labels']"/>
			<output_dir value="DIR"/>
			<placeholder_data_types value="{}"/>
			<placeholder_shapes value="{'image': array([  1,   3, 416, 416])}"/>
			<progress value="False"/>
			<remove_memory value="False"/>
			<remove_output_softmax value="False"/>
			<reverse_input_channels value="True"/>
			<save_params_from_nd value="False"/>
			<scale_values value="image[255.0]"/>
			<silent value="False"/>
			<static_shape value="False"/>
			<stream_output value="False"/>
			<unset unset_cli_parameters="batch, counts, disable_fusing, disable_gfusing, finegrain_fusing, input_checkpoint, input_meta_graph, input_proto, input_symbol, mean_file, mean_file_offsets, move_to_preprocess, nd_prefix_name, pretrained_model_name, saved_model_dir, saved_model_tags, scale, tensorboard_logdir, tensorflow_custom_layer_libraries, tensorflow_custom_operations_config_update, tensorflow_object_detection_api_pipeline_config, tensorflow_use_custom_operations_config, transformations_config"/>
		</cli_parameters>
	</meta_data>
</net>
